force-tool/fo4n9tmh/checkpoints/epoch=199-step=1562600.ckpt (torch, 330099 bytes, 21 tensors)

model.0.weight f4 [64, 23]
0.014087008 -0.0025973478 0.20303698 -0.10566896 0.5545001 0.46671256 0.0381862 -0.23330739
-0.28766805 0.30586013 0.00964272 -0.014883897 -0.08942479 -0.023116414 0.059968762 -0.05720368
-0.34195694 0.0739979 0.10500107 -0.07450319 -0.15149708 -0.4003775 0.29258844 -0.0067299367
-0.0054398538 0.25222003 0.033510186 0.028164642 -0.17881547 0.21230827 1.7152643 -0.0936784
-0.04654527 -0.013197143 0.018515574 0.014697799 0.0022439295 -0.03428552 0.053508576 0.050713103
-0.13647908 0.13089058 0.0037434665 0.62925524 0.29447603 1.5638263 0.00027925472 -0.0023840007
-0.22736156 0.17209336 0.06880759 -0.18277344 -0.12639585 0.9777306 -0.97097033 0.81583565
-0.010926559 -0.025075084 -0.048537947 0.020934884 -0.033647377 0.003388948 -0.1869551 -0.042007808
-0.040276054 0.1777625 0.05850392 -0.02446041 -0.05650186 0.013733244 -0.0021656677 0.2690673
0.014995558 -0.20816635 0.10745604 0.28846493 -0.82313603 -0.49460655 0.120937325 0.012222525
-0.007689241 0.048189715 -0.019395577 -0.043563507 -0.055805583 -0.36749148 0.046758413 0.11614288
0.051285286 -0.145622 -0.29760286 0.30215323 -0.02462658 -0.012787232 -0.037753765 -0.11001558
-0.01344555 -0.1600998 -0.30845875 -0.03770097 0.005961693 0.29867318 -0.05797182 0.0670205
-0.05688441 0.072609834 -0.14766333 0.082265384 -0.05328893 0.24484156 -0.02851648 -0.10309824
0.08426556 -0.24634786 0.35324147 -0.003648716 -0.0054097506 -0.031217525 0.1641574 -0.37626755
0.07536042 -0.29193556 0.21108386 -0.10564332 -0.6116673 0.051537134 0.1262351 -0.07310915
0.007781115 0.034552746 -0.01944849 -0.215207 0.009706268 0.25354055 -0.3271895 -0.5734089
-0.5115235 -1.1330717 -0.01169445 0.0027919796 0.7192572 0.1479013 -0.118279085 -0.21311831
0.0017780979 0.1803125 0.4004073 -0.2314295 -0.017869527 -0.05709143 0.09974015 0.00723556
0.08775923 -0.019788064 0.38436523 -0.0011393683 -0.055993125 -0.12401973 -0.08091277 0.53709614
-1.1125553 0.013522598 0.009030655 0.6040411 -0.03598055 0.11974542 -0.47314155 -0.010648984
0.1750591 0.1430485 -0.51518875 0.019604601 -0.0039238646 -0.020800086 0.0050178547 0.032434974
0.029762205 0.08826689 0.025147451 -0.42482945 0.05600255 0.5611599 0.11197273 -0.08339683
-0.02234965 0.0063597946 -1.1952533 0.07513558 0.05251338 -0.01787322 0.05429707 -0.49812546
0.805896 1.7294862 0.010414523 -0.07053897 -0.014386029 0.050614163 0.07738255 0.013372388
0.06840765 0.025460342 -0.012651509 -0.06454354 0.11469688 -0.10857413 -0.39946732 -0.00524749
-0.019019276 0.7446253 0.022603855 -0.01194303 -0.17335522 0.0029049139 0.96512836 0.87459797
-1.4474571 0.1313533 0.43768123 -0.07520149 -0.05355545 0.029384635 0.06701369 -0.11396272
0.17465876 -0.10849394 -0.03333452 -0.0873109 0.18273173 0.34459317 5.5437587e-05 0.005047956
0.19772494 -0.55680704 0.43668967 -0.1204937 0.021609318 -0.32246312 -0.13043883 0.20682767
-0.09835646 0.18421994 0.015868027 0.04002591 -0.061384067 -0.025771165 -0.46406525 0.028273713
-0.12111314 0.27612996 -0.084537946 -0.5593319 0.34932142 -0.002466587 -0.00248743 -0.9244432
00000000: 32cd 663c 4438 2abb ede8 4f3e f868 d8bd
00000010: b8f3 0d3f f3f4 ee3e 2269 1c3d 22e8 6ebe
00000020: 3a49 93be b399 9c3e 80fc 1d3c 97db 73bc
00000030: 5824 b7bd a25e bdbc cea1 753d 684e 6abd
00000040: fb14 afbe 368c 973d cd0a d73d 2195 98bd
00000050: 0d22 1bbe 48fe ccbe 27ce 953e cd86 dcbb
00000060: cd40 b2bb fc22 813e fa41 093d 89b9 e63c
00000070: 671b 37be 5767 593e c88d db3f 76da bfbd
00000080: 41a6 3ebd d438 58bc f9ad 973c 0acf 703c
00000090: e40e 133b f96e 0cbd cf2b 5b3d 8bb8 4f3d
000000a0: 2cc1 0bbe 2e08 063e f254 753b df16 213f
000000b0: 90c5 963e 762b c83f ef68 9239 e53c 1cbb
000000c0: 78d1 68be 3e39 303e feea 8c3d f628 3bbe
000000d0: ea6d 01be 8d4c 7a3f 8391 78bf 9bda 503f
000000e0: 4f05 33bc 436a cdbc bacf 46bd a27f ab3c
000000f0: d5d1 09bd 1d19 5e3b 2871 3fbe 6110 2cbd
00000100: 81f8 24bd 5f07 363e cea1 6f3d 3361 c8bc
00000110: 7f6e 67bd 6601 613c e0ed 0dbb 30c3 893e
00000120: eeaf 753c 8f29 55be ea11 dc3d adb1 933e
00000130: 0bb9 52bf 123d fdbe fdad f73d fc40 483c
00000140: 07f6 fbbb 9462 453d 79e3 9ebc a66f 32bd
00000150: 6594 64bd d827 bcbe c085 3f3d 51dc ed3d
00000160: 8510 523d ef1d 15be 675f 98be d4b3 9a3e
00000170: aebd c9bc 8a81 51bc b1a3 1abd d94f e1bd
00000180: b94a 5cbc 34f1 23be 4eee 9dbe 556c 1abd
00000190: 4e5a c33b b1eb 983e dc73 6dbd 0b42 893d
000001a0: a1ff 68bd 77b4 943d 0e35 17be c17a a83d
000001b0: 7e45 5abd bfb7 7a3e 659b e9bc 2c25 d3bd
000001c0: 6c93 ac3d 9d42 7cbe 11dc b43e 4c1f 6fbb
000001d0: 4744 b1bb e5bb ffbc e118 283e 24a6 c0be
000001e0: 9056 9a3d 9478 95be 5e26 583e 865b d8bd
000001f0: 3a96 1cbf 9a18 533d c643 013e 40ba 95bd
00000200: b9f8 fe3b 2e87 0d3d 7152 9fbc 395f 5cbe
00000210: 0a07 1f3c 11d0 813e 6285 a7be edca 12bf
00000220: 34f3 02bf 7e08 91bf 149a 3fbc a5f9 363b
00000230: 3d21 383f 7073 173e 4e3c f2bd b03b 5abe
00000240: 110f e93a d7a3 383e 3002 cd3e dbfb 6cbe
00000250: 1d63 92bc b4d8 69bd 9044 cc3d 4718 ed3b
00000260: 1cbb b33d 941a a2bc 85cb c43e db56 95ba
00000270: 0c59 65bd 0efe fdbd 98b5 a5bd 227f 093f
00000280: 3668 8ebf e38d 5d3c 50f5 133c 70a2 1a3f
00000290: 5760 13bd 163d f53d 9c3f f2be 1479 2ebc
000002a0: b142 333e 4e7b 123e 69e3 03bf d499 a03c
000002b0: c393 80bb f164 aabc d16c a43b 89da 043d
000002c0: decf f33c 45c5 b43d 0702 ce3c 3f83 d9be
000002d0: ee62 653d 2da8 0f3f f551 e53d f5cb aabd
000002e0: 9d16 b7bc d365 d03b 0ffe 98bf afe0 993d
000002f0: 4518 573d dc6a 92bc 9b66 5e3d 4d0a ffbe
00000300: 334f 4e3f ce5f dd3f ada1 2a3c bc76 90bd
00000310: 61b3 6bbc cc50 4f3d be7a 9e3d dc17 5b3c
00000320: 4f19 8c3d 3592 d03c 4648 4fbc 672f 84bd
00000330: 33e6 ea3d 1d5c debd fb86 ccbe 23f3 abbb
00000340: 50ce 9bbc c39f 3e3f b82b b93c b3ac 43bc
00000350: 0884 31be 5e60 3e3b a712 773f a7e5 5f3f
00000360: 4646 b9bf 7b81 063e c117 e03e 3d03 9abd
00000370: f65c 5bbd 0cb8 f03c 793e 893d 4965 e9bd
00000380: bfd9 323e 1232 debd c789 08bd 0fd0 b2bd
00000390: 071e 3b3e 846e b03e a885 6838 5369 a53b
000003a0: 6878 4a3e e88a 0ebf ca95 df3e 67c5 f6bd
000003b0: 0606 b13c e319 a5be c291 05be a2ca 533e
000003c0: 1d6f c9bd 27a4 3c3e aafd 813c 35f2 233d
000003d0: dc6d 7bbd 0d1e d3bc f699 edbe 469e e73c
000003e0: 2a0a f8bd e860 8d3e 3b22 adbd 6030 0fbf
000003f0: 42da b23e 76a6 21bb 2704 23bb 4fa8 6cbf

model.0.bias f4 [64]
-0.0084094545 0.07379166 0.047047887 -0.043913696 0.095234014 -0.038881164 -0.013839602 -0.010025419
-0.022190684 0.061556615 0.014401904 0.03206055 -0.019507091 0.07333807 0.0499218 -0.046819262
0.075512 0.05473445 0.08178606 0.033654574 0.04784217 0.017913066 0.1271602 0.012097563
-0.02039579 -0.00033634898 0.05112126 0.026302297 -0.049742583 0.049969435 0.013021466 -0.008280135
0.05054472 0.033321194 0.007723566 0.07325079 0.0754214 0.0019997158 -0.06946335 0.073107824
0.032798562 0.019747382 -0.044143457 0.041074924 -0.016632741 -0.03186586 0.041774157 4.9214755e-06
-0.04221011 0.035814278 0.030175762 0.019786736 -0.06485328 -0.017669953 -0.016337521 -0.036144514
0.034290906 -0.03577138 -0.044941347 -0.038571008 0.053940576 -0.008910943 0.045933224 -0.0486537
00000000: cfc7 09bc 1520 973d 49b5 403d d9de 33bd
00000010: 0d0a c33d db41 1fbd 7fbf 62bc a841 24bc
00000020: 3dc9 b5bc ca22 7c3d f7f5 6b3c ec51 033d
00000030: 56cd 9fbc 4532 963d cd7a 4c3d 8ec5 3fbd
00000040: 09a6 9a3d 3b31 603d 737f a73d 61d9 093d
00000050: 27f6 433d 6cbe 923c 4936 023e db34 463c
00000060: 1215 a7bc ff57 b0b9 8764 513d ea77 d73c
00000070: e1be 4bbd c0ac 4c3d fd57 553c 67a9 07bc
00000080: fb07 4f3d ce7b 083d f815 fd3b 8304 963d
00000090: 8976 9a3d aa0d 033b cd42 8ebd 8eb9 953d
000000a0: c957 063d 43c5 a13c c5cf 34bd 2e3e 283d
000000b0: 6341 88bc c785 02bd 611b 2b3d 2723 a536
000000c0: 82e4 2cbd feb1 123d 2933 f73c cb17 a23c
000000d0: ccd1 84bd 94c0 90bc 44d6 85bc 450c 14bd
000000e0: 9f74 0c3d 0385 12bd 6b14 38bd a2fc 1dbd
000000f0: cbf0 5c3d 34ff 11bc 7a24 3c3d 1a49 47bd

model.3.weight f4 [128, 64]
-0.08375735 0.035971403 0.14258698 -0.079227984 -0.06290405 -0.10581606 -0.19515234 -0.08953348
0.032319963 -0.07630393 0.08737469 0.0051520336 -0.07460366 0.12768927 -0.27353698 -0.11406258
0.09553742 0.18201113 -0.0068617784 -0.0032469865 0.033574782 -0.0176946 0.028699577 0.021266699
-0.22610305 0.047357623 -0.10766436 0.05390772 0.015333193 -0.052430164 -0.06600041 0.15380771
0.15577805 -0.23158097 0.1562669 0.10469202 0.11409124 0.016243074 -0.16104926 -0.29564804
0.005303984 0.11672821 -0.012589424 -0.09099086 -0.025405893 0.011836339 -0.012817338 0.08821974
-0.08724837 0.16641721 0.020068057 -0.003910449 -0.22711727 0.110818006 0.087192744 -0.10388987
0.13383792 -0.11497737 -0.010207499 0.030383704 -0.11209192 -0.017415196 0.10238587 0.05031341
0.004516406 -0.02127857 0.055908572 -0.14553207 -0.14048761 -0.041056935 -0.082707204 0.06427758
0.08420233 0.04885675 0.09570833 -0.26205906 -0.081562385 -0.041502547 -0.122821696 0.12044617
0.2606147 0.11475902 0.08912534 0.07833946 0.11253927 -0.07599544 -0.2315196 -0.10765782
0.03226358 -0.4185124 0.17911276 0.09219245 0.043820646 0.06752888 -0.022556575 -0.3368651
0.11465904 0.22432876 0.051012967 -0.034497764 0.10432534 0.10041659 0.0820865 0.0919605
-0.21298122 0.12919235 0.032373775 -0.18066509 -0.325594 0.2526428 -0.19596225 0.07671065
0.11673944 -0.14592363 -0.11732664 -0.038324036 -0.36753917 -0.24962382 -0.017088806 0.15144892
-0.24889816 0.09732043 0.05038581 -0.0112816505 -0.042251024 -0.17653699 -0.019152682 -0.14111531
0.018137773 -0.008646095 0.0607086 0.053601094 0.04441278 0.14577922 -0.037515283 -0.011446109
0.024726529 0.019885153 -0.10250976 0.05164725 0.17432654 -0.027898908 -0.06997257 0.004834694
-0.1511819 0.075333506 0.08390869 0.079479426 -0.00067153655 -0.17578526 -0.04188164 -0.05315539
-0.47959512 -0.058324702 0.077373445 0.051748227 -0.020165734 -0.028227245 -0.1023015 0.031779047
0.051407088 0.112834655 0.07300298 0.17356202 0.2241548 0.051938456 0.08543292 -0.099392645
0.4947409 -0.12519006 0.074882895 -0.028257627 0.18069196 0.078950435 -0.06351951 0.051977605
-0.04510895 -0.009996521 -0.08907628 0.016909957 -0.23259203 0.124417275 0.0740857 0.008751174
0.007128853 0.100404374 -0.011805157 -0.011845299 -0.0728774 0.0016283634 0.06659597 -0.33352673
0.101506755 0.18260112 0.10625787 -0.09366257 -0.2200498 -0.119007386 0.040071312 0.10097352
0.3285842 0.011872969 -0.038850624 -0.3012495 -0.10969311 -0.29617965 -0.03380376 -0.0019204963
0.059987325 0.05266755 0.08061908 -0.012412829 -0.0081520965 0.15558068 -0.27105278 0.11841422
0.116917394 0.003976857 0.1497773 0.2460068 -0.024976358 0.02493125 -0.53960645 -0.04382117
-0.50254583 0.009250809 -0.3569108 0.07880682 0.008025595 0.09246989 0.03575658 0.06820867
0.19346437 -0.0623654 -0.16200612 -0.065020464 -0.09115211 0.07283132 -0.20183429 -0.013582824
-0.22082846 -0.026985686 0.017149834 -0.07618853 0.07556368 0.13614579 0.07400826 0.16027626
-0.111419305 -0.15949339 -0.07469363 0.09612145 -0.09898927 -0.12966937 0.18436797 -0.6575083
00000000: f988 abbd c056 133d 5202 123e 4842 a2bd
00000010: d7d3 80bd 17b6 d8bd 04d6 47be 545d b7bd
00000020: f061 043d 3c45 9cbd 80f1 b23d 64d2 a83b
00000030: cec9 98bd fac0 023e 0a0d 8cbe a499 e9bd
00000040: 1fa9 c33d 2061 3a3e c5d8 e0bb 65cb 54bb
00000050: b685 093d 44f4 90bc 601b eb3c 8037 ae3c
00000060: 8f87 67be 11fa 413d 227f dcbd 57ce 5c3d
00000070: 1338 7b3c 03c1 56bd 392b 87bd c57f 1d3e
00000080: 4884 1f3e 9023 6dbe 6e04 203e c568 d63d
00000090: aba8 e93d 3210 853c 19ea 24be 2e5f 97be
000000a0: 0bcd ad3b 330f ef3d df43 4ebc 6a59 babd
000000b0: 0520 d0bc 34ed 413c d0ff 51bc 8dac b43d
000000c0: 46af b2bd 4669 2a3e c465 a43c 3923 80bb
000000d0: 6e91 68be 8df4 e23d 1c92 b23d 36c4 d4bd
000000e0: cf0c 093e 4179 ebbd 5b3d 27bc 3fe7 f83c
000000f0: 7390 e5bd 50aa 8ebc afaf d13d 6f15 4e3d
00000100: 5cfe 933b 6550 aebc 6300 653d 5c06 15be
00000110: fcdb 0fbe 512b 28bd 6562 a9bd f7a3 833d
00000120: 4572 ac3d 041e 483d bb02 c43d 9b2c 86be
00000130: 2e0a a7bd 93fe 29bd f189 fbbd 7bac f63d
00000140: 4a6f 853e c706 eb3d 5987 b63d 7070 a03d
00000150: fd7a e63d 7fa3 9bbd 7913 6dbe b47b dcbd
00000160: d126 043d 4247 d6be 5669 373e 65cf bc3d
00000170: 477d 333d 954c 8a3d 91c8 b8bc 9579 acbe
00000180: 5cd2 ea3d 70b6 653e f9f2 503d 874d 0dbd
00000190: 86a8 d53d 37a7 cd3d f81c a83d c955 bc3d
000001a0: c017 5abe 004b 043e 5d9a 043d 4500 39be
000001b0: 42b4 a6be 665a 813e 54aa 48be 791a 9d3d
000001c0: 1615 ef3d 016d 15be f348 f0bd aaf9 1cbd
000001d0: 182e bcbe 639d 7fbe d3fd 8bbc 6d15 1b3e
000001e0: 29df 7ebe ef4f c73d 5a61 4e3d acd6 38bc
000001f0: 690f 2dbd 1dc6 34be 16e6 9cbc 8880 10be
00000200: ab95 943c 5aa8 0dbc 95a9 783d d28c 5b3d
00000210: 2dea 353d 2647 153e a0a9 19bd 7688 3bbc
00000220: 4a8f ca3c 30e6 a23c a3f0 d1bd 118c 533d
00000230: a882 323e 408c e4bc c74d 8fbd 5a6c 9e3b
00000240: 6ecf 1abe 7448 9a3d 52d8 ab3d 1cc6 a23d
00000250: 0e0a 30ba 0d01 34be 158c 2bbd 77b9 59bd
00000260: 7e8d f5be e2e5 6ebd f875 9e3d f3f5 533d
00000270: 9c32 a5bc d33c e7bc 7383 d1bd bf2a 023d
00000280: 3d90 523d db15 e73d 9682 953d 3eba 313e
00000290: d688 653e 6bbd 543d 74f7 ae3d 5f8e cbbd
000002a0: ae4e fd3e d331 00be 345c 993d 8a7c e7bc
000002b0: 5007 393e c4b0 a13d 8416 82bd 78e6 543d
000002c0: 2ac4 38bd 73c8 23bc a06d b6bd c086 8a3c
000002d0: 9b2c 6ebe 7cce fe3d 3eba 973d 1661 0f3c
000002e0: 2799 e93b cfa0 cd3d 6b6a 41bc c912 42bc
000002f0: bf40 95bd cf6e d53a 7863 883d 04c4 aabe
00000300: c6e2 cf3d cafb 3a3e ba9d d93d 29d2 bfbd
00000310: bc54 61be 25ba f3bd d121 243d 34cb ce3d
00000320: 303c a83e d786 423c d521 1fbd 603d 9abe
00000330: c8a6 e0bd dca4 97be d075 0abd 2ab9 fbba
00000340: 45b5 753d eeb9 573d 9e1b a53d 2e5f 4bbc
00000350: 5f90 05bc 8b50 1f3e 6ec7 8abe 2883 f23d
00000360: 6372 ef3d 4b50 823b 385f 193e 35e9 7b3e
00000370: 389b ccbc 9f3c cc3c a623 0abf d47d 33bd
00000380: d8a6 00bf b590 173c 03bd b6be 7865 a13d
00000390: c97d 033c db60 bd3d 7e75 123d fdb0 8b3d
000003a0: 861b 463e dd72 7fbd efe4 25be 7329 85bd
000003b0: f5ad babd 9628 953d a6ad 4ebe 7e8a 5ebc
000003c0: db20 62be 1611 ddbc cf7d 8c3c bb08 9cbd
000003d0: 21c1 9a3d cd69 0b3e a591 973d 761f 243e
000003e0: ce2f e4bd 3c52 23be f9f8 98bd 53db c43d
000003f0: e3ba cabd 0cc8 04be f5ca 3c3e 7752 28bf

model.3.bias f4 [128]
-0.011305722 0.047043927 -0.033234436 -0.61147755 -0.028782178 0.028769778 0.029133983 0.029455507
-0.024129296 0.054604106 -0.005434893 -0.0090960385 0.13213684 0.07672241 -0.02071708 -0.0029605562
0.0468813 -0.017369859 0.073034555 0.01392268 0.024844656 0.047915276 -0.024703555 -0.02017439
0.023681844 -0.014773845 0.034734126 0.033839885 0.024126003 0.081171185 -0.002335196 -0.043765325
0.038413033 -0.003030766 0.02244726 -0.025167001 0.0067418693 0.04279064 -0.0009831104 0.03222223
0.011566256 -0.046188373 0.027159488 0.065927394 0.033554237 0.04260039 -0.058782842 -0.083681226
0.13847487 0.016754055 -0.015961748 -0.020774376 0.001758882 0.08643727 0.15764092 0.013756796
-0.014581138 0.0055660866 0.020857776 -0.056011267 0.008134766 -0.008434818 -0.010488512 -0.023513341
-0.0018438663 0.05759983 -0.027589662 -0.055933613 0.08054715 0.078133374 -0.03679117 0.11955455
0.0403502 -0.018168312 0.1401306 -0.067178436 0.023277316 0.026409302 -0.040521324 0.0075187082
0.08613874 -0.04822275 0.014881175 0.021685869 0.04327058 0.03390274 0.08908268 -0.013965608
-0.04094835 0.06916323 -0.047082685 -0.048378613 -0.04407058 0.115047365 0.034401614 0.014302664
0.015805956 0.1244659 -0.024664827 -0.00021453356 0.0334875 0.02410427 0.119893745 0.08318118
0.11693959 -0.03946872 -0.028040193 0.07723307 0.03421995 -0.00999752 -0.09457465 0.005701596
-0.0016247903 -0.15393528 0.09478463 0.113529205 0.13025896 0.0005332016 0.0099101905 0.0031276618
-0.007509969 0.019819507 0.111600585 0.059611212 0.004213017 0.055860404 0.06040818 0.019760763
00000000: a33b 39bc 22b1 403d d520 08bd cb89 1cbf
00000010: 9ac8 ebbc 99ae eb3c 64aa ee3c ad4c f13c
00000020: cdaa c5bc 8ea8 5f3d 3017 b2bb 8d07 15bc
00000030: e14e 073e a420 9d3d deb6 a9bc e405 42bb
00000040: 9b06 403d 3c4b 8ebc 2493 953d f41b 643c
00000050: 0587 cb3c cf42 443d 1c5f cabc c344 a5bc
00000060: 6d00 c23c ff0d 72bc 5f45 0e3d b19b 0a3d
00000070: e5a3 c53c 143d a63d 160a 19bb 4543 33bd
00000080: fc56 1d3d d19f 46bb 51e3 b73c 072b cebc
00000090: e6ea dc3b 3d45 2f3d b6db 80ba 75fb 033d
000000a0: 6580 3d3c 0530 3dbd 937d de3c f104 873d
000000b0: 2b70 093d bf7d 2e3d 47c6 70bd 1061 abbd
000000c0: 5bcc 0d3e cd3f 893c 36c2 82bc 062f aabc
000000d0: 498a e63a 0606 b13d 9f6c 213e 2f64 613c
000000e0: bae5 6ebc b863 b63b eddd aa3c 126c 65bd
000000f0: ae47 053c 3132 0abc 02d8 2bbc 0d9f c0bc
00000100: e3ad f1ba cded 6b3d b703 e2bc a51a 65bd
00000110: e7f5 a43d 6404 a03d 56b2 16bd 04d9 f43d
00000120: 4046 253d b6d5 94bc 657e 0f3e d994 89bd
00000130: 12b0 be3c 5258 d83c b0f9 25bd 7f5f f63b
00000140: 8269 b03d 3885 45bd 2cd0 733c 90a6 b13c
00000150: 7e3c 313d 99dd 0a3d fb70 b63d 01d0 64bc
00000160: 75b9 27bd 74a5 8d3d c6d9 40bd a728 46bd
00000170: 5a83 34bd f49d eb3d b5e8 0c3d b955 6a3c
00000180: 7e7b 813c fae7 fe3d e40d cabc 6af4 60b9
00000190: 302a 093d 5176 c53c da8a f53d e55a aa3d
000001a0: 067e ef3d f4a9 21bd 8cb4 e5bc 5f2c 9e3d
000001b0: 382a 0c3d a3cc 23bc 5bb0 c1bd 74d4 ba3b
000001c0: eaf6 d4ba 36a1 1dbe 721e c23d 0082 e83d
000001d0: 9b62 053e 8ec6 0b3a 5a5e 223c 75f9 4c3b
000001e0: 3016 f6bb 855c a23c d98e e43d e32a 743d
000001f0: 590d 8a3b e1cd 643d 916e 773d 53e1 a13c

model.6.weight f4 [128, 128]
-0.38440052 -0.019198703 -0.031677224 -0.7174123 -0.32003742 0.20690608 0.033988375 0.05486545
-0.42730772 -0.07252748 -0.4341484 -0.00051193725 -0.074454024 0.12746999 0.054968126 -0.17666553
0.02846021 -0.30794066 0.05757441 -0.30314547 -0.1432705 0.040164873 -0.14734311 0.48176458
-0.11977209 0.08983367 -0.0727522 0.31200677 -0.04247151 0.06329365 0.10716548 -0.8997382
0.08517147 0.06216452 0.05625372 0.06840983 -0.11288132 0.16262987 -0.12653443 -0.108635
0.18121679 -0.61239606 -0.044764258 -0.04866635 0.3312329 -0.14077662 -0.27071565 0.105229124
0.25374117 -0.01229642 0.094102554 -0.036152985 -0.07717224 -0.22188036 -0.0013756234 -0.26288012
-0.07266609 -0.60272604 0.12668122 -0.6121307 -0.16951488 -0.0772139 0.13798927 -0.08708173
-0.16074519 -0.017173657 -0.044956185 0.14369734 0.040688645 0.17874466 0.28858656 -0.005456407
-0.26896176 0.27826983 -0.012473725 0.12140552 0.035291474 0.035527337 -0.16543828 -0.06595278
-0.092802346 -0.12085448 -0.10696124 0.42436245 0.05115038 0.087957606 0.23000737 -0.19179593
0.11807084 0.02681698 -0.009201568 0.07955242 -0.028711148 -0.032269295 0.08933015 0.14126343
-0.47705257 0.037864573 -0.2376398 -0.09602626 0.21650651 -0.18619402 0.12211404 -0.08219604
0.05455417 0.13390262 -0.14121245 0.23849154 0.20775484 0.09351746 -0.20231941 0.021954292
0.06484755 0.4458026 -0.109211616 0.11888682 0.0924864 -0.064554706 0.15004478 0.010511836
0.11505472 0.16912691 -0.044240322 0.22331311 -0.31695995 0.1605177 0.15343234 0.16359116
0.1740254 0.14484179 0.074809656 -0.17447017 0.03905737 0.12428279 0.0515446 0.100794256
0.13068452 0.06948922 0.035504352 0.013454774 -0.037902996 0.061724998 0.2042554 0.14391169
0.14531992 0.22031529 0.006195949 0.027066102 0.13688385 -0.11240263 -0.17425859 0.41389412
0.14056888 0.15329379 -0.24539377 -0.12481316 -0.23126711 0.16814607 -0.10692351 0.0071548694
0.081086725 0.16378972 -0.077675976 -0.01378967 0.01935764 0.22501382 0.22353798 0.052353326
0.010224109 -0.19069918 -0.1424098 0.06059467 -0.052181203 -0.09781473 0.15618259 0.11844696
-0.052724916 0.084856264 0.13141513 0.09305577 -0.042265765 0.28469878 -0.07231699 0.05396638
-0.036346473 -0.2735313 0.005327739 0.22862056 -0.0062411735 -0.010577922 -0.09847142 0.006930251
0.024185684 0.11772093 -0.15885912 0.067269534 0.11846157 0.008953337 -0.33839744 0.0775768
0.018988276 -0.025373364 0.13713448 0.07342499 0.21231568 0.028066026 0.056106627 0.04157859
0.05468468 -0.0020299933 -0.09942675 0.06363834 0.026743218 0.021424126 -0.17454213 0.10352616
-0.08538839 -0.0035120293 0.12453872 0.11999051 -0.113538526 0.08238908 0.19148147 0.06974749
-0.09466133 -0.04130898 0.034899063 0.058493685 -0.004605416 0.06721864 -0.19825636 0.10144309
-0.17084199 -0.10360228 -0.03301657 -0.00041760207 -0.39841276 -0.02522463 -0.06777028 -0.17678481
-0.01410471 0.028145537 0.055953622 -0.05843937 -0.04651337 -0.032135986 0.08471317 -0.13158655
-0.09088024 0.10385795 -0.010315224 -0.29210612 0.18234083 -0.16116726 0.06936767 -0.15981442
00000000: 25d0 c4be 9946 9dbc fabf 01bd 55a8 37bf
00000010: f2db a3be 30df 533e 6537 0b3d 98ba 603d
00000020: 14c8 dabe 4a89 94bd b348 debe 8733 06ba
00000030: 5a7b 98bd 7e87 023e 4226 613d cfe7 34be
00000040: 6325 e93c 66aa 9dbe 25d3 6b3d e235 9bbe
00000050: 80b5 12be ec83 243d 1de1 16be d9a9 f63e
00000060: 124b f5bd b7fa b73d 1bff 94bd 5abf 9f3e
00000070: 9bf6 2dbd 1aa0 813d 9379 db3d 3e55 66bf
00000080: 616e ae3d 39a0 7e3d 4d6a 663d 741a 8c3d
00000090: 522e e7bd 7288 263e 3e92 01be 077c debd
000000a0: e590 393e fdc5 1cbf ba5a 37bd 5e56 47bd
000000b0: 5c97 a93e bf27 10be 3e9b 8abe 5e82 d73d
000000c0: 5dea 813e ec76 49bc d7b8 c03d 2715 14bd
000000d0: 7b0c 9ebd 9b34 63be 434e b4ba 3998 86be
000000e0: f6d1 94bd 414c 1abf b9b8 013e 99b4 1cbf
000000f0: 4f95 2dbe 5222 9ebd 0f4d 0d3e e857 b2bd
00000100: 639a 24be c5af 8cbc fa23 38bd 6525 133e
00000110: 23a9 263d d708 373e 9ec1 933e a9cb b2bb
00000120: 5bb5 89be 6279 8e3e 985e 4cbc 75a3 f83d
00000130: cb8d 103d 1d85 113d a768 29be 4012 87bd
00000140: 280f bebd 8e82 f7bd 7f0e dbbd 0946 d93e
00000150: 1083 513d 1e23 b43d 0d87 6b3e 2766 44be
00000160: 20cf f13d 49af db3c 2cc2 16bc 61ec a23d
00000170: a433 ebbc cf2c 04bd baf2 b63d 5ca7 103e
00000180: 3c40 f4be e217 1b3d d957 73be 6aa9 c4bd
00000190: e2b3 5d3e a5a9 3ebe ed16 fa3d 6656 a8bd
000001a0: 3274 5f3d c51d 093e ff99 10be 2037 743e
000001b0: afbd 543e 1586 bf3d d22c 4fbe 7dd9 b33c
000001c0: cbce 843d 3d40 e43e 57aa dfbd ef7a f33d
000001d0: 8269 bd3d 4235 84bd 57a5 193e d639 2c3c
000001e0: cfa1 eb3d 9b2f 2d3e 5735 35bd 31ac 643e
000001f0: 9348 a2be c05e 243e 5e1d 1d3e 7184 273e
00000200: b733 323e 6851 143e ce35 993d 4fa8 32be
00000210: 9ffa 1f3d fa87 fe3d 6e20 533d 386d ce3d
00000220: 2ad2 053e 5d50 8e3d 036d 113d 6a71 5c3c
00000230: 2c40 1bbd 5ad3 7c3d 5428 513e 965d 133e
00000240: bfce 143e 559a 613e 6307 cb3b bbb9 dd3c
00000250: 482b 0c3e 5a33 e6bd d870 32be eee9 d33e
00000260: 4af1 0f3e 0cf9 1c3e 8148 7bbe 0b9e ffbd
00000270: 49d1 6cbe 7c2e 2c3e b7fa dabd 6573 ea3b
00000280: cc10 a63d 7eb8 273e 9514 9fbd 11ee 61bc
00000290: ea93 9e3c 066a 663e 24e7 643e 7170 563d
000002a0: 0583 273c a546 43be e0d3 11be 1e32 783d
000002b0: f5bb 55bd 1753 c8bd 54ee 1f3e 5294 f23d
000002c0: 15f6 57bd 1fc9 ad3d b091 063e 0694 be3d
000002d0: de1e 2dbd 0ac4 913e ee1a 94bd da0b 5d3d
000002e0: 0ae0 14bd 4b0c 8cbe 5094 ae3b 821b 6a3e
000002f0: c282 ccbb 054f 2dbc 62ab c9bd 2917 e33b
00000300: 0e21 c63c ac17 f13d f7ab 22be 9cc4 893d
00000310: fb9b f23d 04b1 123c 6e42 adbe 96e0 9e3d
00000320: 4d8d 9b3c cddb cfbc fb6c 0c3e d75f 963d
00000330: 4869 593e b9ea e53c 10d0 653d 504e 2a3d
00000340: 0bfd 5f3d a309 05bb 40a0 cbbd d154 823d
00000350: 9814 db3c a681 af3c 2cbb 32be 8605 d43d
00000360: 1ce0 aebd 132a 66bb 280e ff3d 96bd f53d
00000370: e386 e8bd 9bbb a83d b813 443e c6d7 8e3d
00000380: cddd c1bd 9b33 29bd 52f2 0e3d 1397 6f3d
00000390: 08e9 96bb eda9 893d b703 4bbe 65c1 cf3d
000003a0: 34f1 2ebe 6f2d d4bd 623c 07bd 9af1 dab9
000003b0: c2fc cbbe e2a3 cebc 25cb 8abd 1407 35be
000003c0: 7117 67bc 7891 e63c a02f 653d 1f5e 6fbd
000003d0: ce84 3ebd 06a1 03bd 197e ad3d a0be 06be
000003e0: 6b1f babd 7ab3 d43d 2f01 29bc ef8e 95be
000003f0: 8eb7 3a3e 0809 25be a310 8e3d 64a6 23be

model.6.bias f4 [128]
0.09355938 0.013744226 0.0112533355 0.017331803 0.038342495 -0.008329144 0.10399747 0.027521003
0.016798375 -0.00377135 0.096483044 0.06961625 -0.000737169 -0.014181109 0.04653523 0.043064155
0.07920898 -0.25579366 0.01737687 0.06459368 0.09127957 0.013554964 0.092939824 0.11633819
0.02465527 0.03865612 0.040443018 -0.048010662 0.055267118 0.029803962 -0.011645877 0.015776739
-0.07742065 -0.02865392 -0.013065869 -0.008859077 0.019158859 0.026351238 -0.0006950639 -0.00036264147
0.12589413 0.06066057 0.018560609 0.038364157 -0.0328685 -0.035819184 -0.021678774 -0.047001783
-0.015183229 -0.010496864 0.027497593 -0.008299742 0.08909013 0.0386331 0.07049673 0.0039123483
0.046419747 -0.24556258 -0.014024475 0.0625266 0.045303755 -0.0062550153 0.09413133 -0.016004222
-0.054702815 -0.016105348 0.051472735 0.054225456 -0.036773454 -0.007837451 0.008047851 0.001319538
-0.02860504 0.034765765 0.017265582 0.024018034 -0.01726717 0.01772035 0.025043435 0.02113591
0.08177696 0.029775904 -0.025579512 0.10494848 0.09823201 0.06842473 0.044906158 -0.29731843
0.11917196 0.020392094 0.05974862 0.08241332 0.046670593 0.09510624 0.058816593 0.12559211
0.041119814 -0.006933214 0.026035678 0.015709914 0.039221935 0.06509267 -0.014321214 0.092849664
0.078820996 0.056996625 0.07813542 0.034765158 -0.018506637 0.011142448 0.07973509 0.065677665
-0.024738083 0.12081343 0.0074561704 0.08939898 0.09291213 0.10576425 0.027620766 0.095097095
0.050707582 0.029910054 0.050450627 0.049357235 -0.06972433 0.055623848 0.0014418176 0.114010625
00000000: 0f9c bf3d 762f 613c e95f 383c 6dfb 8d3c
00000010: 050d 1d3d f676 08bc a0fc d43d ba73 e13c
00000020: bf9c 893c c128 77bb e798 c53d f792 8e3d
00000030: 933e 41ba e257 68bc ba9b 3e3d 0a64 303d
00000040: 5138 a23d 63f7 82be f059 8e3c b149 843d
00000050: c8f0 ba3d a415 5e3c 3c57 be3d b842 ee3d
00000060: d9f9 c93c e155 1e3d 94a7 253d d4a6 44bd
00000070: c65f 623d 7027 f43c 59ce 3ebc 383e 813c
00000080: b88e 9ebd a0bb eabc 3a12 56bc a925 11bc
00000090: 0af3 9c3c 8dde d73c f334 36ba ea20 beb9
000000a0: 64ea 003e 3877 783d 6b0c 983c bc23 1d3d
000000b0: 1fa1 06bd 23b7 12bd af97 b1bc f184 40bd
000000c0: 14c3 78bc 0afb 2bbc a242 e13c a4fb 07bc
000000d0: e374 b63d be3d 1e3d 9760 903d 2833 803b
000000e0: a222 3e3d c274 7bbe e9c6 65bc f20d 803d
000000f0: 6e90 393d dff6 ccbb edc7 c03d 491b 83bc
00000100: 0f10 60bd 5def 83bc 13d5 523d 831b 5e3d
00000110: c39f 16bd a768 00bc 22db 033c 59f4 ac3a
00000120: 1e55 eabc 8c66 0e3d 8d70 8d3c 78c1 c43c
00000130: e173 8dbc 442a 913c e427 cd3c 3725 ad3c
00000140: ae7a a73d 99ec f33c 208c d1bc 3bef d63d
00000150: dd2d c93d 4422 8c3d 85ef 373d 1f3a 98be
00000160: 6e10 f43d 520d a73c f8ba 743d 51c8 a83d
00000170: aa29 3f3d 0fc7 c23d abe9 703d 389b 003e
00000180: 406d 283d 0430 e3bb c648 d53c 14b2 803c
00000190: 2ea7 203d 4e4f 853d 86a3 6abc f727 be3d
000001a0: e76c a13d 4b75 693d 7705 a03d e965 0e3d
000001b0: 3b9b 97bc d08e 363c 274c a33d 0382 863d
000001c0: 85a7 cabc 086d f73d e452 f43b d016 b73d
000001d0: b748 be3d ed9a d83d f244 e23c 44c2 c23d
000001e0: c1b2 4f3d ee05 f53c 51a5 4e3d d02a 4a3d
000001f0: a1cb 8ebd d5d5 633d 5ffb bc3a 677e e93d

model.9.weight f4 [1, 128]
-0.7760256 0.49274734 1.2391796 0.7761461 0.8837972 0.37006843 -1.0880824 0.714341
0.74735916 0.3480121 -0.70372504 -0.9201539 0.6722906 -2.0011847 0.6981809 0.7646248
-2.5510147 -0.13449772 1.00035 -0.5203407 -0.59803814 2.067863 -0.72498864 -1.850345
0.83968586 0.6735418 -2.6490405 4.6887474 -5.3439465 -0.68150085 -0.9092742 -1.2731698
1.3799776 3.9891012 0.9969518 0.13006344 0.36718008 0.4449078 -0.011865086 1.1158861
-0.88033646 0.11248742 0.6549609 0.8214717 2.7890291 5.20143 1.3024571 1.5527304
-2.335736 1.8415582 0.48810184 0.675833 -1.4749522 0.36511955 -0.9683714 1.3413084
-1.4702556 -0.09141031 0.61232835 -0.7627025 -1.2364469 0.3166254 -0.72515965 0.89962894
3.1638346 -3.5516834 -1.3394088 -0.68980515 2.8188016 -0.011718992 0.27090356 1.7668918
0.5590669 0.644097 0.91555536 0.45495233 3.4428742 1.233119 1.735368 2.3919473
-1.9996556 1.2334371 1.7680995 -0.5894354 -3.518873 -1.1754864 1.1097299 -0.48743805
-2.7479987 0.5552736 -3.4436777 -1.339078 0.7341394 -0.45565394 -0.954964 -0.9160047
0.85929817 1.1175194 1.001455 0.024917332 -1.7411085 -2.1749647 -0.0019140639 -0.57087994
-2.3099716 -2.624306 -1.018301 1.1891822 1.1186811 0.36674854 -0.8985145 0.4015477
1.3730233 -1.6154183 1.2865458 -0.49856544 -1.4428632 -1.0450711 1.5322233 -0.62318933
0.64318144 -1.324884 0.78061664 0.36915168 -0.7986153 -1.6361048 0.54877925 -0.77196324
00000000: 9da9 46bf 6149 fc3e 709d 9e3f 83b1 463f
00000010: 8940 623f 9c79 bd3e 4946 8bbf 0ddf 363f
00000020: ee52 3f3f a42e b23e 5327 34bf 358f 6bbf
00000030: 3d1b 2c3f 6913 00c0 fcbb 323f 73be 433f
00000040: d343 23c0 c5b9 09be 780b 803f 0c35 05bf
00000050: 0719 19bf de57 0440 db98 39bf 1bd8 ecbf
00000060: a7f5 563f 3c6d 2c3f e189 29c0 380a 9640
00000070: 9c01 abc0 d776 2ebf 32c6 68bf 3af7 a2bf
00000080: 1ba3 b03f 6f4d 7f40 3c38 7f3f 5a2f 053e
00000090: 07ff bb3e f5ca e33e c765 42bc 5bd5 8e3f
000000a0: bb5d 61bf ce5f e63d 84ab 273f f84b 523f
000000b0: 747f 3240 1d72 a640 eab6 a63f dfbf c63f
000000c0: b37c 15c0 2eb8 eb3f 7ce8 f93e 6403 2d3f
000000d0: 3ccb bcbf f3f0 ba3e 30e7 77bf feaf ab3f
000000e0: 5631 bcbf 5435 bbbd 8dc1 1c3f 7940 43bf
000000f0: e443 9ebf b91c a23e 10a4 39bf 154e 663f
00000100: 447c 4a40 c84e 63c0 bf71 abbf 1297 30bf
00000110: 3f67 3440 0401 40bc dfb3 8a3e 8329 e23f
00000120: 021f 0f3f 8ae3 243f d661 6a3f 83ef e83e
00000130: 0d58 5c40 d8d6 9d3f 8a20 de3f aa15 1940
00000140: b7f4 ffbf 44e1 9d3f 1651 e23f 3de5 16bf
00000150: 3735 61c0 5776 96bf a10b 8e3f 7b91 f9be
00000160: 36df 2fc0 6926 0e3f 3765 5cc0 e866 abbf
00000170: 8ff0 3b3f 794b e9be 8578 74bf 497f 6abf
00000180: f7fa 5b3f e00a 8f3f ad2f 803f 6f1f cc3c
00000190: a5dc debf 9f32 0bc0 54e1 faba 3025 12bf
000001a0: 93d6 13c0 a1f4 27c0 b057 82bf 1f37 983f
000001b0: f130 8f3f 77c6 bb3e 0c05 66bf a997 cd3e
000001c0: 3abf af3f 07c6 cebf 88ad a43f f843 ffbe
000001d0: beaf b8bf e4c4 85bf e51f c43f 5689 1fbf
000001e0: 8aa7 243f cd95 a9bf 7ed6 473f 7301 bd3e
000001f0: 0d72 4cbf e26b d1bf cc7c 0c3f 629f 45bf

exp_avg f4 [64, 23]
-0.00012121782 0.0043301564 -0.00014805103 0.0011417139 -0.00011971323 0.00090490293 -0.00018387499 0.00056225306
0.000262171 0.00024779368 0.0013765224 0.009624432 0.0081645325 -0.0027572797 -0.0034424304 -0.0044926964
-0.0015333617 -0.012500765 -0.0036851836 0.0024025298 -5.7485693e-05 2.2263168e-06 -1.4767141e-05 -0.0034384367
-0.0018413741 -0.0002360411 -0.012268736 -0.0015964331 -0.022084119 -0.0123557495 -4.2192256e-05 5.7710655e-05
2.5598736e-05 -0.0005202491 -0.0032288365 0.0019474073 -0.0104863895 -0.0059732855 -0.010204966 -0.0032227617
-0.00991102 -0.0024924316 -0.007902028 -2.545555e-05 7.1562405e-05 -2.7938855e-05 0.008740235 -0.021590555
-0.0019762227 -0.046385776 0.0025377888 -0.050105456 0.012586118 7.306484e-05 0.0003554664 2.191372e-05
-0.0059638964 0.0013413941 0.0036355678 -0.06798971 -0.0770332 -0.082772106 -0.02744231 -0.08228672
-0.06379718 -0.08689996 -0.00032668936 -0.00020571871 -0.0003551686 -0.014136834 0.011775044 0.0007672229
0.011905259 0.0005348659 0.0032447423 0.029171506 4.374342e-05 -5.293587e-05 2.0185023e-05 0.0019584598
0.0014658814 0.008939975 0.026062667 0.033545975 0.032551628 0.012823756 0.025749363 0.015280863
0.022607187 0.00020777229 0.00025736034 5.7457175e-05 0.0039766366 -0.0010917422 5.3875945e-05 0.008497234
-0.00050991576 -0.002349855 0.009640499 0.0004743479 0.0001563734 2.9167828e-05 0.0020624034 0.0027996998
0.0049973256 0.0012936376 -0.003457304 0.001985687 0.0014180257 0.008187696 -0.0039745565 0.0042838017
7.3782874e-05 5.48206e-06 8.140087e-06 -0.0022865755 -0.010908658 0.00016688072 0.008107887 -0.0007698762
0.0014727622 0.0029063015 2.368311e-05 4.7214293e-05 -3.0864117e-05 0.0015557206 0.0015996614 -0.0017792897
0.009209 0.007427609 0.007299639 0.0016610604 0.007670818 0.011592452 0.010892462 6.4281216e-05
4.5792247e-05 6.7878485e-05 0.0106314765 -0.011806292 -0.0008284238 -0.034548797 0.00030711302 -0.032886658
-0.0059879734 -6.8369445e-05 0.00012260741 -4.587744e-05 -0.004467386 -0.0036707146 -0.0013752172 -0.027151402
-0.03587212 -0.032695472 -0.012850415 -0.015479091 -0.022000818 -0.02254894 -3.820236e-05 -0.00028924266
-6.522187e-05 0.004320172 -0.0077855024 -0.0010726176 -0.043621782 -0.0008023129 -0.0024283603 0.017535854
-4.3953503e-05 8.9047855e-05 0.00026564326 -0.00065516616 0.0072926893 0.008190821 -0.044926364 -0.045249965
-0.04352956 -0.01616542 -0.041728772 -0.0063869758 -0.03848043 -0.0002681344 -0.00028544315 -0.0002849645
0.008600536 -0.00896258 -0.0006254541 -0.006203182 0.0014615925 -0.0007375181 0.0019588538 -0.0005264002
-0.00016833437 0.00012665924 -0.00032640417 -9.680471e-07 0.0062969807 -0.018966654 -0.030053869 -0.026034988
-0.007950625 -0.030766616 -0.030700509 -0.04458221 -0.0002703552 -0.00019565795 -0.0001444968 0.008739935
0.0026552586 -0.0004390196 -0.024803441 -0.0037075328 0.00048963644 -0.008391739 -0.00047543773 -0.00020081816
2.5937477e-05 0.0009252817 5.414005e-05 -0.00070847 -0.01681822 -0.022606878 -0.018240634 -0.005805793
-0.02198956 -0.010699194 -0.023050308 -0.00015725984 -6.172383e-05 -0.0001486321 -0.009621227 -0.014331753
0.00012788025 0.0016750394 0.0007870417 -1.8104494e-05 0.0015102841 0.0001116884 0.0001380584 2.5533878e-05
0.00031257005 -0.0013662578 0.0007197801 0.0026748232 0.0049047684 0.005368357 0.0005104042 0.00033645894
0.0077892616 0.0057888865 6.6894674e-05 -1.5294412e-05 -5.8656124e-06 0.019007018 -0.012648582 -0.0010040811
00000000: 5236 feb8 fce3 8d3b 253e 1bb9 90a5 953a
00000010: 8d0e fbb8 0237 6d3a 91ce 40b9 2a64 133a
00000020: ff73 8939 4eea 8139 6d6c b43a cbaf 1d3c
00000030: 88c4 053c 7ab3 34bb 669a 61bb 7837 93bb
00000040: 15fb c8ba 02d0 4cbc 1f83 71bb c373 1d3b
00000050: cb1c 71b8 d567 1536 63c0 77b7 6557 61bb
00000060: 435a f1ba cd81 77b9 cf02 49bc 683f d1ba
00000070: c1e9 b4bc c56f 4abc 97f7 30b8 580e 7238
00000080: debc d637 5361 08ba e39a 53bb 2540 ff3a
00000090: 1bcf 2bbc 8dbb c3bb bb32 27bc f834 53bb
000000a0: d561 22bc 1058 23bb 8277 01bc 6189 d5b7
000000b0: c613 9638 3c5e eab7 3433 0f3c adde b0bc
000000c0: 8483 01bb 03ff 3dbd 0851 263b 613b 4dbd
000000d0: 0136 4e3c 633a 9938 e55d ba39 5bd3 b737
000000e0: ca6c c3bb b8d1 af3a b542 6e3b 303e 8bbd
000000f0: 95c3 9dbd 6c84 a9bd b2ce e0bc f185 a8bd
00000100: 19a8 82bd 9bf8 b1bd 8147 abb9 32b6 57b9
00000110: ec35 bab9 2e9e 67bc 1dec 403c 751f 493a
00000120: 470e 433c 3e36 0c3a bea5 543b 15f9 ee3c
00000130: 2479 3738 7507 5eb8 0253 a937 8159 003b
00000140: d122 c03a f978 123c 6081 d53c 8167 093d
00000150: db54 053d bb1a 523c 54f0 d23c 965c 7a3c
00000160: b532 b93c 73dd 5939 52ee 8639 2cfe 7038
00000170: 724e 823b ca18 8fba dbf8 6138 fc37 0b3c
00000180: deab 05ba 0600 1abb 2ff3 1d3c e6b1 f839
00000190: 2af8 2339 6fad f437 6329 073b 2b7b 373b
000001a0: 9bc0 a33b 468f a93a f093 62bb 4d22 023b
000001b0: 0cdd b93a b025 063c ff3c 82bb 225f 8c3b
000001c0: e1bb 9a38 89f2 b736 6891 0837 5fda 15bb
000001d0: 3aba 32bc b4fc 2e39 f1d6 043c 84d1 49ba
000001e0: b309 c13a a677 3e3b 17ab c637 f607 4638
000001f0: 1874 01b8 52e9 cb3a bbab d13a 0e37 e9ba
00000200: 58e1 163c 4d63 f33b cf31 ef3b f0b7 d93a
00000210: 7c5b fb3b 45ee 3d3c 4c76 323c b7ce 8638
00000220: 0d11 4038 fc59 8e38 a52f 2e3c 2e6f 41bc
00000230: 952a 59ba 0a83 0dbd 0304 a139 29b4 06bd
00000240: c336 c4bb 9161 8fb8 2d90 0039 876c 40b8
00000250: 2663 92bb 5f90 70bb a240 b4ba 9e6c debc
00000260: a5ee 12bd b0eb 05bd 8c8a 52bc 039c 7dbc
00000270: 0f3b b4bc 8eb8 b8bc 793b 20b8 7ea5 97b9
00000280: bac7 88b8 3b90 8d3b 871d ffbb 1397 8cba
00000290: c1ac 32bd 4f52 52ba 2025 1fbb 5aa7 8f3c
000002a0: b75a 38b8 34bf ba38 0946 8b39 75bf 2bba
000002b0: 83f7 ee3b cb32 063c b504 38bd 0758 39bd
000002c0: 0d4c 32bd 586d 84bc caeb 2abd d649 d1bb
000002d0: a89d 1dbd 6494 8cb9 88a7 95b9 4a67 95b9
000002e0: 43e9 0c3c c9d7 12bc 84f5 23ba 1044 cbbb
000002f0: e892 bf3a 0056 41ba 1d60 003b 1ffe 09ba
00000300: ea82 30b9 d5cf 0439 3a21 abb9 d8ed 81b5
00000310: e756 ce3b f55f 9bbc 8833 f6bc 5447 d5bc
00000320: 5743 02bc 450a fcbc a27f fbbc d69b 36bd
00000330: 76be 8db9 8829 4db9 1084 17b9 f231 0f3c
00000340: d903 2e3b 372c e6b9 9630 cbbc 14fa 72bb
00000350: f25a 003a 817d 09bc 2c44 f9b9 b792 52b9
00000360: 4f94 d937 9b8e 723a 7014 6338 9eb8 39ba
00000370: 5dc6 89bc 0f32 b9bc 626d 95bc 863e bebb
00000380: 7323 b4bc ac4b 2fbc 00d4 bcbc 1ee6 24b9
00000390: bb71 81b8 20da 1bb9 5aa2 1dbc bbcf 6abc
000003a0: 9817 0639 ff8c db3a 7951 4e3a 1bdf 97b7
000003b0: baf4 c53a 413a ea38 c5c3 1039 9631 d637
000003c0: 71e0 a339 0114 b3ba a0af 3c3a 164c 2f3b
000003d0: 2eb8 a03b 0be9 af3b a5cc 053a c166 b039
000003e0: 103d ff3b b3b0 bd3b ce49 8c38 804c 80b7
000003f0: 3ad1 c4b6 9bb4 9b3c 003c 4fbc 5f9b 83ba

exp_avg_sq f4 [64, 23]
0.0004383994 0.00065438496 2.2114173e-06 0.0006904097 0.00081316556 0.0009127033 0.0011904559 4.895646e-06
1.0330413e-05 6.0506335e-07 0.0004999928 0.0017957074 0.00057989906 0.0038703135 0.004150552 0.0037917471
0.0002488229 0.0036310367 0.003857979 0.0028080242 1.4565643e-07 1.3852066e-07 1.4392916e-07 0.0007330038
0.000738561 4.3639598e-06 0.0030146325 0.0015936224 0.0016931061 0.001326336 8.589289e-07 2.3493092e-06
9.198258e-08 0.00012345905 0.00014328992 0.00031240244 0.007730304 0.008325961 0.007569734 0.000619512
0.0048694643 0.007133793 0.0064962436 2.8003086e-07 2.768465e-07 2.7811828e-07 0.0018562418 0.0020732163
1.2117142e-05 0.008144139 0.002355958 0.004600405 0.0059259394 2.6785842e-06 2.6675275e-06 3.494796e-07
0.00021930346 0.0008789279 0.0004944898 0.021751681 0.022925843 0.02099063 0.0018204635 0.014940879
0.01688534 0.020508513 7.520557e-07 7.5930427e-07 7.599117e-07 0.0012792896 0.0011969276 8.186228e-06
0.0055430173 0.0012518243 0.0015875943 0.005728712 3.7784405e-06 3.432709e-06 3.5822413e-07 0.0006117323
0.0025371835 0.0007550651 0.014261566 0.015379197 0.0141243655 0.0014174689 0.014040258 0.010240603
0.011697455 5.2875924e-07 5.3224164e-07 5.154781e-07 0.0006252004 0.00063129014 3.2904525e-06 0.0018730812
0.0011630661 0.0010738401 0.0015622817 2.4415951e-06 4.5402717e-06 1.3227692e-07 0.00015844005 0.00021598447
0.00037631046 0.0059270803 0.0060024406 0.0056733782 0.00041246152 0.0058874823 0.0042634294 0.0046412037
2.1315367e-07 2.0170522e-07 2.169364e-07 0.00047537097 0.00056951586 3.0234878e-06 0.0018527132 0.00076538743
0.0013219931 0.0012285992 2.1013354e-06 7.4349705e-06 2.8563883e-07 9.3329305e-05 0.00026556227 0.000377001
0.0053593013 0.0056464383 0.00523826 0.00044131087 0.0038981827 0.0049328837 0.00242561 1.9099917e-07
1.864855e-07 1.8479619e-07 0.002424909 0.0025049895 1.8611896e-05 0.012166203 0.0017976599 0.003116326
0.012007546 9.846571e-06 7.2348234e-06 1.5206958e-06 0.0005439397 0.0016223519 0.0019078123 0.033053074
0.03419428 0.032193203 0.0032380996 0.030403621 0.025024882 0.026593424 1.1912616e-06 1.1701346e-06
1.1656484e-06 0.0011231296 0.001156076 7.380101e-06 0.007277332 0.000590698 0.00060197606 0.0047120615
2.8296963e-06 2.7477204e-06 3.6566826e-07 0.00035374783 0.0012762665 0.00047954373 0.01290608 0.013845407
0.012811299 0.0015502779 0.010402711 0.0012240271 0.011524242 4.803812e-07 4.7082312e-07 4.740916e-07
0.002268519 0.0027477746 1.7110742e-05 0.012369975 0.0011032128 0.0013017595 0.012373693 4.399913e-06
1.831141e-06 5.413394e-07 0.0007573884 0.0013923929 0.0009724416 0.030292537 0.03334961 0.029940812
0.0034719792 0.01958852 0.019737951 0.01884514 1.1042852e-06 1.0772214e-06 1.1036791e-06 0.00081932225
0.00078880985 4.945668e-06 0.0030627965 0.0007899919 0.0009789794 0.0039599086 1.0054314e-06 1.1493141e-06
4.6833446e-08 6.153387e-05 5.5008073e-05 0.00032966895 0.008630848 0.009358698 0.008626678 0.0008643639
0.006944302 0.005422051 0.0061797984 3.2744714e-07 3.1536902e-07 3.2525045e-07 0.00053274893 0.000939824
1.7737428e-06 0.0004247209 0.00099963 0.0006859316 0.0008695276 4.393037e-06 2.1263075e-05 3.204575e-07
0.00030523926 0.00025892197 0.00072299776 0.003242923 0.003319335 0.0030736 0.00017147316 0.002674174
0.0025247224 0.0030922373 1.2055443e-07 1.1530118e-07 1.247943e-07 0.0045148684 0.004383184 3.5484674e-05
00000000: f9d8 e539 088b 2b3a dc67 1436 9cfc 343a
00000010: 9e2a 553a 7b42 6f3a 1209 9c3a 4745 a436
00000020: c950 2d37 a36b 2235 f311 033a f15d eb3a
00000030: 5e04 183a 16a5 7d3b 5b01 883b f67e 783b
00000040: 7274 8239 b0f6 6d3b 26d6 7c3b d406 383b
00000050: bc65 1c34 45bc 1434 f28a 1a34 0d27 403a
00000060: fd9b 413a 216e 9236 2491 453b 18e1 d03a
00000070: 37eb dd3a 73d8 ad3a 2591 6635 d3a8 1d36
00000080: f587 c533 c974 0139 1840 1639 f2c9 a339
00000090: 7d4e fd3b 9d69 083c 880b f83b bf66 223a
000000a0: 0790 9f3b 98c2 e93b 71de d43b 2657 9634
000000b0: 7ea1 9434 4950 9534 244d f33a ccde 073b
000000c0: bb4a 4b37 ff6e 053c 6b66 1a3b ffbe 963b
000000d0: 622e c23b bac1 3336 c603 3336 1ca0 bb34
000000e0: d3f4 6539 da67 663a a6a0 013a 9530 b23c
000000f0: face bb3c 8bf4 ab3c 9e9c ee3a 97ca 743c
00000100: 2053 8a3c 7801 a83c e0e0 4935 fed2 4b35
00000110: bcfc 4b35 d6ad a73a 3ae2 9c3a 9557 0937
00000120: 33a2 b53b 4114 a43a d316 d03a ebb7 bb3b
00000130: 1d91 7d36 7e5d 6636 f351 c034 a95c 203a
00000140: e046 263b 90ef 453a 58a9 693c 07f9 7b3c
00000150: e269 673c 5dca b93a 1c09 663c 34c8 273c
00000160: afa6 3f3c 0ff0 0d35 5edf 0e35 635f 0a35
00000170: 7de4 233a 2a7d 253a 8bd1 5c36 2d82 f53a
00000180: 0672 983a 18c0 8c3a 7ac5 cc3a 49da 2336
00000190: a358 9836 0108 0e34 ed22 2639 e479 6239
000001a0: 894b c539 f437 c23b 1fb0 c43b bfe7 b93b
000001b0: a63f d839 c8eb c03b 3db4 8b3b 3d15 983b
000001c0: 3cdf 6434 4f94 5834 06ef 6834 363b f939
000001d0: 904b 153a 20e7 4a36 bdd6 f23a 48a4 483a
000001e0: ba46 ad3a f308 a13a ab04 0d36 e979 f936
000001f0: e759 9934 cab9 c338 2a3b 8b39 38a8 c539
00000200: 149d af3b c205 b93b b6a5 ab3b be5f e739
00000210: a778 7f3b 07a4 a13b fcf6 1e3b 7415 4d34
00000220: be3c 4834 646c 4634 39eb 1e3b c02a 243b
00000230: be20 9c37 c154 473c 759f eb3a 463b 4c3b
00000240: 4cbb 443c b332 2537 a9c2 f236 b61a cc35
00000250: 2d97 0e3a 19a5 d43a 8f0f fa3a a962 073d
00000260: 4d0f 0c3d 05dd 033d 4c36 543b 0411 f93c
00000270: fb00 cd3c 74da d93c 70e3 9f35 850d 9d35
00000280: 6073 9c35 fa35 933a 7987 973a 96a2 f736
00000290: af76 ee3b 12d9 1a3a eecd 1d3a a367 9a3b
000002a0: d0e5 3d36 7a65 3836 1051 c434 3b77 b939
000002b0: 6648 a73a 456b fb39 0674 533c d9d7 623c
000002c0: 7ce6 513c b232 cb3a 2270 2a3c 896f a03a
000002d0: 2dd0 3c3c 8bf3 0035 70c5 fc34 a786 fe34
000002e0: 6fab 143b 0214 343b 0a89 8f37 70ab 4a3c
000002f0: ae99 903a cd9f aa3a 08bb 4a3c f7a2 9336
00000300: 87c5 f535 8f50 1135 7a8b 463a f480 b63a
00000310: 73eb 7e3a 0e28 f83c 9a99 083d 6f46 f53c
00000320: 258a 633b 1b78 a03c 7cb1 a13c 1f61 9a3c
00000330: f336 9435 0c95 9035 2022 9435 c9c7 563a
00000340: 22c8 4e3a f7f2 a536 33b9 483b 7517 4f3a
00000350: 1951 803a 1fc2 813b 5cf2 8635 2242 9a35
00000360: eb25 4933 bf0b 8138 78b8 6638 6bd7 ac39
00000370: 6668 0d3c 3955 193c e956 0d3c 7b96 623a
00000380: 078d e33b 76ab b13b e87f ca3b fecb af34
00000390: fd4f a934 159e ae34 2da8 0b3a 855e 763a
000003a0: 5711 ee35 13ad de39 0406 833a 17d0 333a
000003b0: 02f1 633a e767 9336 1b5e b237 580b ac34
000003c0: 8508 a039 ebbf 8739 8f87 3d3a 3887 543b
000003d0: 3389 593b 736e 493b 7acd 3339 3241 2f3b
000003e0: d075 253b 22a7 4a3b c071 0134 7e9b f733
000003f0: 32ff 0534 76f1 933b d0a0 8f3b 61d5 1438

exp_avg f4 [64]
-0.004492695 -0.010204964 -0.082772106 0.032551628 0.0019856861 0.0072996365 -0.032695472 -0.043529555
-0.026034983 -0.018240636 0.005368358 -0.04411273 0.05478712 -0.006717575 -0.04045304 0.018997548
-0.007326393 -0.01777679 -0.011314327 0.014770428 -0.0024071112 0.003834301 -0.0090351375 -0.021601979
0.0020615908 -0.00093657605 0.008986273 0.0037808514 0.0122699635 0.015339081 0.0018191446 0.0001874832
-0.023590162 0.027881863 -0.009086564 -0.13288887 -0.04735034 0.003145005 0.025171785 0.004385702
-0.008850736 -0.010307318 -0.009788513 0.050937694 -0.022626974 0.13974981 0.041783955 0.038608618
0.017331544 0.00971194 -0.018617766 -0.0064938995 0.011902025 0.044409953 -0.0020415895 -0.0069384384
-0.049821183 0.012147033 -0.00787079 0.014469727 -0.012215982 0.032779723 -0.020520642 0.0027101673
00000000: 7537 93bb b932 27bc 6c84 a9bd db54 053d
00000010: 4922 023b ca31 ef3b b0eb 05bd 0c4c 32bd
00000020: 5147 d5bc 636d 95bc 0de9 af3b 8daf 34bd
00000030: 7668 603d 1a1f dcbb 16b2 25bd bfa0 9b3c
00000040: 3d12 f0bb a1a0 91bc ba5f 39bc aaff 713c
00000050: a0c0 1dbb e548 7b3b 1d08 14bc a2f6 b0bc
00000060: c11b 073b 8e84 75ba 293b 133c 29c8 773b
00000070: f507 493c c550 7b3c 5d70 ee3a 2397 4439
00000080: 2840 c1bc 8168 e43c d0df 14bc 0514 08be
00000090: 6ef2 41bd 6e1c 4e3b 0f35 ce3c efb5 8f3b
000000a0: ad02 11bc 06e0 28bc 0060 20bc 0ba4 503d
000000b0: 345c b9bc 931a 0f3e a725 2b3d 1224 1e3d
000000c0: e2fa 8d3c d41e 1f3c 4984 98bc c7ca d4bb
000000d0: b600 433c 36e7 353d 30cc 05bb d75b e3bb
000000e0: 4c11 4cbd 5904 473c 7cf4 00bc 6f12 6d3c
000000f0: 8b25 48bc 0844 063d e81a a8bc 109d 313b

exp_avg_sq f4 [64]
0.0037917471 0.007569735 0.02099063 0.014124364 0.0056733787 0.00523826 0.032193203 0.012811299
0.029940816 0.008626678 0.0030736001 0.061704762 0.014013047 0.007803261 0.068591245 0.02744634
0.017194197 0.019913998 0.0075873104 0.011881326 0.01955664 0.017837776 0.009783297 0.0419509
0.01386219 0.0023150304 0.0139512215 0.019141998 0.011835757 0.0274176 0.01994051 0.012300877
0.018842595 0.021160105 0.025447838 0.2124598 0.040316395 0.033950273 0.0057157795 0.017267337
0.0635458 0.026351906 0.015168431 0.040891543 0.016563753 0.30945942 0.019380994 0.021485494
0.012982335 0.013828136 0.0121491095 0.07066749 0.015043219 0.054832924 0.00910323 0.007394893
0.072268166 0.010058931 0.007932234 0.04292257 0.05480928 0.014839097 0.014153274 0.0044797137
00000000: f67e 783b 8a0b f83b 8bf4 ab3c e069 673c
00000010: c0e7 b93b b6a5 ab3b 05dd 033d 7ce6 513c
00000020: 7146 f53c e956 0d3c 746e 493b 22be 7c3d
00000030: fb96 653c 7fb2 ff3b 9179 8c3d 26d7 e03c
00000040: d8da 8c3c ae22 a33c f99e f83b e5a9 423c
00000050: 3f35 a03c 8720 923c 1f4a 203c b5d4 2b3d
00000060: 3d1e 633c c4b7 173b aa93 643c aecf 9c3c
00000070: c3ea 413c e09a e03c 485a a33c 9e89 493c
00000080: c95b 9a3c f557 ad3c fc77 d03c 108f 593e
00000090: ce22 253d 710f 0b3d 6f4b bb3b 3b74 8d3c
000000a0: 4d24 823d f4df d73c 0385 783c e47d 273d
000000b0: b5b0 873c 7771 9e3e e4c4 9e3c 5902 b03c
000000c0: dcb3 543c 688f 623c 0f0d 473c 1eba 903d
000000d0: d577 763c 7d98 603d b725 153c dc50 f23b
000000e0: 5501 943d 37ce 243c 33f6 013c 94cf 2f3d
000000f0: b27f 603d af1f 733c 22e3 673c 90ca 923b
