force-tool/6jzqedxd/checkpoints/epoch=6-step=54691.ckpt (torch, 330099 bytes, 21 tensors)

model.0.weight f4 [64, 23]
0	0x3d655e48	0.055998117
1	0x3d374f2d	0.044753242
2	0xbec68c27	-0.38778803
3	0xbd93420c	-0.07190332
4	0x3cb7e383	0.022447353
5	0xbd240932	-0.04004783
6	0xbd93a076	-0.0720834
7	0x3ec938d1	0.3930116
8	0xbe91537d	-0.2838401
9	0x3ec9573b	0.39324364
10	0xbcb50326	-0.022096228
11	0x3e8ae6a5	0.27129093
12	0x3dd0ff14	0.10204902
13	0x3ddf1110	0.10891926
14	0xbda7168e	-0.08158599
15	0xbd171bfc	-0.036891922
16	0xbe9ac06f	-0.3022494
17	0x3dcda23d	0.1004071
18	0x3d88f02e	0.06686436
19	0x3e18dfc7	0.14929114
20	0xbe209f1a	-0.15685692
21	0x3daf8c07	0.0857163
22	0x3de5e109	0.11224563
23	0xbd8f833f	-0.07007455
24	0x3d23a677	0.039953675
25	0xbee33e8b	-0.44383654
26	0xbdc59ae9	-0.096486874
27	0xbbe9e2fc	-0.0071376543
28	0x3e021be9	0.1270596
29	0x3d2c48c4	0.042061582
30	0xbca2a680	-0.019854784
31	0x3e7f99eb	0.24961059
32	0xbd9cf382	-0.07663633
33	0x3ea0f9d7	0.31440613
34	0x3ece02c3	0.40236482
35	0xbe1c285f	-0.15249775
36	0x3d5ab952	0.05339939
37	0x3df6061a	0.120128825
38	0xbce78379	-0.028260933
39	0x3dbc8e68	0.09206849
40	0xbe25200e	-0.16125509
41	0x3d151b1b	0.036402803
42	0x3e490bc5	0.19633396
43	0x3e4da69a	0.20083085
44	0x3d3efce2	0.046627887
45	0xbe3bb0ad	-0.18329115
46	0x3d6e4eff	0.058180805
47	0x3dc64ce7	0.09682637
48	0xbde99921	-0.1140616
49	0xbbf4c798	-0.0074700825
50	0x3d68a5df	0.056798812
51	0xbc7d4d36	-0.015460303
52	0xbde9378a	-0.11387546
53	0xbd34b402	-0.04411698
54	0xbdae9042	-0.08523609
55	0xbbc9d0e6	-0.006158936
56	0x3c9fa6bd	0.019488687
57	0xbe010899	-0.12600936
58	0x3e265456	0.16243109
59	0xbd9089b3	-0.07057514
60	0xbe07ad23	-0.1324964
61	0x3e108095	0.1411155
62	0xbe938525	-0.2881252
63	0x3cb2f44a	0.021845002
64	0x3e67e685	0.2264653
65	0x3e657a24	0.22409874
66	0x3e279e79	0.16369046
67	0x3c83cfca	0.016090292
68	0x3ebebb00	0.37252045
69	0x3cd0a608	0.025469795
70	0xbdbc077e	-0.091811165
71	0xbe25b4e5	-0.16182287
72	0xbd724ff1	-0.05915827
73	0xbe0a649a	-0.13514939
74	0x3e13c594	0.14430839
75	0x3cc1c9e6	0.023655843
76	0xbeeaa72f	-0.45830676
77	0x3b5c10ba	0.0033579306
78	0x3e7698d4	0.24081737
79	0x3ce7e2c6	0.028306376
80	0xbdc620dc	-0.09674236
81	0x3e20d099	0.15704574
82	0x3e43bcd5	0.19115002
83	0x3de07963	0.10960653
84	0xbd9aff88	-0.0756827
85	0xbdc152c2	-0.09439613
86	0x3dfd6582	0.12372877
87	0xbdaa77a9	-0.083236046
88	0x3d153b25	0.036433358
89	0x3dd150fb	0.10220524
90	0xbe304d61	-0.17217018
91	0x3ef830e0	0.4847479
92	0xbcd2dbcf	-0.025739579
93	0xbc0a6d8e	-0.008448971
94	0xbdf2e55e	-0.118601546
95	0xbe093d93	-0.13402395
96	0xbd231635	-0.0398161
97	0x3da4297f	0.08015727
98	0x3da7c24a	0.081913546
99	0xbee123e1	-0.43972686
100	0xbefdff0c	-0.49608648
101	0x3d0293cd	0.031879235
102	0x3cefbf3a	0.029265989
103	0x3d9a0028	0.07519561
104	0x3e436f89	0.19085516
105	0x3deb1ec6	0.11480479
106	0xbe534340	-0.20631123
107	0x3cef479b	0.029208949
108	0xbdf22b77	-0.118246965
109	0xbd2e043d	-0.04248451
110	0x3e6af1f9	0.22943868
111	0x3dc8fa03	0.09813311
112	0xbd54a34a	-0.051913537
113	0x3ccdd5e2	0.025126401
114	0x3edd0168	0.43165135
115	0x3d608e92	0.054823466
116	0x3c4284d6	0.011872491
117	0xbdade404	-0.08490756
118	0xbe3c3947	-0.18381225
119	0x3e778e52	0.24175385
120	0xba9614c5	-0.0011450282
121	0xbdae39aa	-0.08507092
122	0xbca6666f	-0.020312516
123	0xbe8df7df	-0.27728173
124	0xbda499cf	-0.08037149
125	0xbd749953	-0.059716534
126	0x3d8f0ebb	0.069852315
127	0x3d5ef529	0.05443302
128	0xbd0681f9	-0.032838795
129	0xbe368259	-0.17823161
130	0xbc976b06	-0.01848365
131	0xbd5c287e	-0.053749554
132	0x3e3c0b67	0.18363725
133	0xbe005c78	-0.12535274
134	0x3dda6759	0.10664243
135	0xbde518f1	-0.11186398
136	0x3cee6f9d	0.029105956
137	0x3dd6682a	0.104690865
138	0x3afddb5e	0.0019367745
139	0xbd02abe0	-0.031902194
140	0xbe7f7f44	-0.24950892
141	0x3e4d28dc	0.20035118
142	0xbe996b6c	-0.2996477
143	0x3b42fa4c	0.002975124
144	0xbe35eb7f	-0.17765616
145	0xbcab28f5	-0.020893553
146	0xbec09391	-0.37612584
147	0x3ec78334	0.38967288
148	0x3d842c47	0.06453758
149	0x3ddae3be	0.106879696
150	0xbd8209a3	-0.06349494
151	0xbcbd8c8b	-0.023138305
152	0xbd82197b	-0.06352516
153	0x3d73d138	0.0595257
154	0xbe0a77af	-0.13522218
155	0x3e4563fe	0.19276425
156	0xbe025a70	-0.12729812
157	0xbda96351	-0.08270896
158	0xbe6bef7b	-0.23040573
159	0x3dbd5b96	0.09245984
160	0xbd9358dd	-0.07194684
161	0x3db55c30	0.08855474
162	0x3dd1c227	0.1024211
163	0x3f1222e3	0.5708448
164	0xbe61dc04	-0.22056586
165	0xbe2ab6b3	-0.16671257
166	0xbe2c5c9d	-0.16832204
167	0xbe325424	-0.1741491
168	0x3da10efd	0.07864187
169	0x3e870c3b	0.2637652
170	0xbe756f9a	-0.23968354
171	0xbdd4493d	-0.103655316
172	0xbdf7adcb	-0.12093695
173	0xbca370b9	-0.019951211
174	0x3e35804c	0.17724723
175	0x3e4bd076	0.1990374
176	0xbe4446cf	-0.19167636
177	0x3e9492b8	0.29018188
178	0x3bca0122	0.006164686
179	0x3dde11e9	0.1084326
180	0x3e1c30ed	0.15253039
181	0x3e82f564	0.25577843
182	0x3d974ab8	0.07387298
183	0xbeaa02ab	-0.3320516
184	0xbce200cf	-0.027588276
185	0x3c9349ab	0.017979464
186	0xbed29b38	-0.41134048
187	0x3e884de6	0.26621932
188	0x3e6785df	0.22609662
189	0xbb2441cd	-0.0025063634
190	0xbc9e8bb0	-0.019353718
191	0x3db1d449	0.08683068
192	0x3f288c83	0.65839404
193	0x3f07bdea	0.5302416
194	0xbda46842	-0.08027698
195	0x3d85bcfb	0.06530186
196	0x3d5e8a0e	0.054330878
197	0xbcb22f4c	-0.021751069
198	0xbd04e724	-0.032446995
199	0xbd1f2455	-0.03885301
200	0xbd9c63ea	-0.076362446
201	0x3d96e4df	0.073678724
202	0xbe087e44	-0.13329417
203	0xbc682599	-0.01416912
204	0xbde06531	-0.10956801
205	0xbe085850	-0.13314939
206	0xbdefa6eb	-0.11701759
207	0xbc714b2d	-0.014727396
208	0xbcd19355	-0.025582949
209	0xbd4fdbcd	-0.050746728
210	0xbe236975	-0.15958197
211	0xbadd095e	-0.0016863754
212	0xbe2eda45	-0.1707545
213	0x3d449594	0.04799421
214	0x3e8b8f89	0.27257946
215	0xbdd4440f	-0.10364544
216	0x3e536a21	0.20645954
217	0xbd1caa64	-0.038248435
218	0xbcd25361	-0.025674524
219	0xbe5dfa10	-0.21677423
220	0xbd73eb2f	-0.05955046
221	0xbd8ccfac	-0.06875548
222	0x3e40d7d8	0.18832338
223	0x3e26dcb1	0.16295125
224	0xbe05c1f1	-0.13062264
225	0x3cde0040	0.027099729
226	0xbe11a34c	-0.14222449
227	0x3e34a3f8	0.17640674
228	0x3da61503	0.081094764
229	0xbe0d1610	-0.13777947
230	0xbd08d8fc	-0.033410057
231	0x3d8c434b	0.068487726
232	0xbeb3df64	-0.3513137
233	0x3d2bfd9e	0.041989915
234	0xbe1cc4b6	-0.15309414
235	0x3e096c92	0.13420323
236	0xbe47f994	-0.195288
237	0x3edf671e	0.4363336
238	0x3d1df5db	0.038564544
239	0x3ed42039	0.41430834
240	0x3dc51808	0.09623724
241	0xbe441973	-0.19150333
242	0xbd68dcf6	-0.05685135
243	0xbcb2c910	-0.02182439
244	0x3d842f13	0.06454291
245	0x3d8f8d18	0.07009333
246	0x3cd8fc3b	0.02648746
247	0xbd852154	-0.065004975
248	0x3df110c5	0.11770777
249	0x3c1bee56	0.009517273
250	0xbde5e6bb	-0.11225649
251	0xbdcc8b10	-0.099874616
252	0xbd231eba	-0.039824225
253	0xbd450ee6	-0.04810991
254	0x3d373535	0.044728477
255	0x3deb6c4b	0.114952646

model.0.bias f4 [64]
0	0x3da33218	0.07968539
1	0xbde8657e	-0.11347483
2	0xbc4e79dc	-0.012602296
3	0xbd89d6a7	-0.06730395
4	0x3d1f9a95	0.03896578
5	0xbe1b62d5	-0.1517442
6	0xbd191a8a	-0.037378825
7	0xbd930edf	-0.07180571
8	0xbcfa1762	-0.030528728
9	0x3d9f49e3	0.07777765
10	0xbde8f025	-0.11373929
11	0xbda7647d	-0.081734635
12	0x3da0cc88	0.07851511
13	0x3e66eaa1	0.22550441
14	0x3d6f30e8	0.05839625
15	0x3ddac620	0.106823206
16	0xbb871a18	-0.0041229837
17	0x3e422af0	0.18961692
18	0xbe504f78	-0.20342815
19	0xbd3e4f9b	-0.046462636
20	0x3d583b66	0.05279102
21	0x3e48db05	0.196148
22	0x3e05c79a	0.13064423
23	0xbd4bd47a	-0.04976318
24	0x3e5ac7aa	0.21365228
25	0x3d2e5dee	0.042570047
26	0xbe0380fb	-0.12842171
27	0x3e324d63	0.17412333
28	0xbdb81f3a	-0.08990331
29	0xbe287a9e	-0.16453025
30	0x3dfda293	0.12384524
31	0xbddbabb1	-0.10726107
32	0x3dd57833	0.10423317
33	0x3d987800	0.07444763
34	0x3e2f070d	0.17092533
35	0xbdd8ccd2	-0.105859414
36	0x3cf4744e	0.029840615
37	0x3c86d1dc	0.01645749
38	0x3e57eb04	0.21085745
39	0x3ced2081	0.028946163
40	0x3e42b958	0.19016016
41	0xbd32f95e	-0.043694846
42	0xbd218c82	-0.03944064
43	0x3e73bb41	0.238019
44	0xbe27272e	-0.1632354
45	0x3dc0decc	0.09417495
46	0x3ccc7c06	0.024961483
47	0xbd951db2	-0.072810546
48	0x3c3c1c1b	0.01148131
49	0xbc3bf5b0	-0.011472151
50	0x3e5acbb2	0.21366766
51	0xbdc3a84c	-0.095535845
52	0xbde9f74e	-0.11424123
53	0xbc886c10	-0.01665309
54	0xbdf79c37	-0.120903425
55	0xbce55431	-0.027994247
56	0xbd86b477	-0.0657739
57	0xbdb14222	-0.08655192
58	0xbc6dd363	-0.014515731
59	0x3e2c5e53	0.16832857
60	0x3a800b14	0.0009768927
61	0xbccbd275	-0.024880627
62	0x3d72b7cb	0.05925731
63	0x3e5691ae	0.2095401

model.3.weight f4 [128, 64]
0	0x3db8c5e1	0.090221174
1	0xbd94d6f5	-0.07267562
2	0x3ddf9fed	0.10919175
3	0x3c44b8da	0.012006963
4	0x3daac166	0.08337669
5	0xbdd9c15d	-0.10632584
6	0xbe2cb878	-0.16867244
7	0x3ce5dfc0	0.028060794
8	0x3da835e5	0.082134046
9	0xbdd2606f	-0.102722995
10	0x3db22fb3	0.08700504
11	0xbc98c07d	-0.018646473
12	0x3d86e65f	0.065869085
13	0x3d7d1c06	0.061794303
14	0xbcf65257	-0.03006856
15	0xbc6df2c9	-0.0145232165
16	0x3d6211f1	0.05519289
17	0x3de652f7	0.11246293
18	0x3c05dea8	0.008170761
19	0xbde23b2a	-0.11046441
20	0x3c954781	0.018222572
21	0xbba40c43	-0.0050063445
22	0x3ce66dc9	0.028128522
23	0xbcacafb6	-0.02107988
24	0xbd0cf682	-0.034414776
25	0x3d9e4940	0.07728815
26	0xbd9b2740	-0.07575846
27	0xbcc9f588	-0.024653211
28	0x3dce0eeb	0.10061439
29	0x3dc06934	0.09395066
30	0x3d37d6a6	0.04488244
31	0xbddb1eb2	-0.10699214
32	0x3dba74d5	0.09104315
33	0x3dddcab3	0.108296774
34	0xbe1e6553	-0.1546834
35	0xbd66a26c	-0.05630724
36	0x3de8f581	0.11374951
37	0xbca18e06	-0.019721042
38	0x3900da20	0.00012288289
39	0x3d3af225	0.045641083
40	0xbd3e10bd	-0.04640268
41	0x3deb0c83	0.11476996
42	0x3e14160b	0.14461534
43	0xbdb31fa7	-0.087462716
44	0x3dce2bc7	0.100669436
45	0x3e1394a1	0.14412166
46	0xbdeabe0c	-0.1146203
47	0x3d81c089	0.06335551
48	0xbd56e62e	-0.05246561
49	0xbe0cd543	-0.13753228
50	0xbc86740d	-0.01641276
51	0xbe51df88	-0.20495427
52	0xbcdde472	-0.02708647
53	0xbd7050f0	-0.058670938
54	0xbdd4a9eb	-0.10383972
55	0x3ccf3c15	0.025297204
56	0x3d079f7b	0.033111077
57	0x3d5dd4c2	0.05415798
58	0x3d101953	0.0351804
59	0x3daffa7c	0.08592698
60	0xbdab5b2f	-0.08367001
61	0xbd474326	-0.048648022
62	0xbcad1ba8	-0.021131352
63	0xbdfdb691	-0.123883374
64	0xbd35de1f	-0.044401284
65	0xbb92d8a2	-0.004481391
66	0x3c856e4e	0.016287949
67	0xbd220129	-0.039551888
68	0x3d54cb98	0.051951975
69	0xbb1a9f57	-0.002359351
70	0x3d77102b	0.060318153
71	0x3d3b6084	0.04574634
72	0xbdfe404a	-0.12414606
73	0x3daff3c4	0.085914165
74	0xbd80acb2	-0.06282939
75	0x3d972be2	0.07381417
76	0x3de8879a	0.11353989
77	0x3df36ec7	0.118863635
78	0x3e0b55dc	0.13606972
79	0xbd424b76	-0.047435246
80	0x3e4eaa68	0.20182192
81	0xbd144612	-0.036199637
82	0x3db7424f	0.08948194
83	0xbd6a4c46	-0.057201646
84	0xbe24ff7b	-0.16113083
85	0x3dde4b6f	0.108542316
86	0xbc32495f	-0.010881751
87	0x3d5903f1	0.052982274
88	0xbda92e98	-0.0826084
89	0x3daa443c	0.08313796
90	0x3abb40c8	0.0014286274
91	0x3d0c5501	0.034260754
92	0xbc2e6294	-0.01064362
93	0xbdb5242c	-0.0884479
94	0x3decaa9d	0.115559794
95	0x3d04ffee	0.032470636
96	0x3d1cae56	0.038252197
97	0xbdc237aa	-0.09483273
98	0x38a1de6d	7.718508e-05
99	0x3d814dcc	0.06313667
100	0x3c8c7a79	0.017148243
101	0x3cea88a4	0.028629608
102	0xbd150b8b	-0.03638796
103	0xbbdbe01d	-0.006710066
104	0xbd0331e0	-0.032029986
105	0xbcf82590	-0.030291349
106	0xbd64a397	-0.055820074
107	0xbdf74401	-0.120735176
108	0x3dd713e8	0.10501844
109	0xbdce7dc2	-0.1008258
110	0x3dfb1631	0.12260092
111	0xbb346864	-0.0027528042
112	0xbdabbf85	-0.08386139
113	0x3ca6cbb8	0.020360813
114	0x3e06b6fe	0.13155743
115	0x3d9329dd	0.07185719
116	0xbdb84cf3	-0.08999052
117	0x3d730cef	0.059338506
118	0x3dc2802d	0.09497104
119	0x3c796134	0.015220929
120	0xbe3be77f	-0.18350028
121	0xbc690aed	-0.014223796
122	0x3dc6209a	0.09674187
123	0x3d805936	0.06267016
124	0xbcd47467	-0.025934411
125	0x3d993ea8	0.07482654
126	0x3c7e0789	0.015504726
127	0x3e096b45	0.13419826
128	0x3d830362	0.063971296
129	0xbdc1d30f	-0.09464084
130	0x3cc0100c	0.023445152
131	0xbd22f23c	-0.039781794
132	0xbd5dac6d	-0.054119516
133	0xbd4f5dd7	-0.050626602
134	0x3dadd8ad	0.08488593
135	0x3de180d6	0.11010902
136	0xbe17a91d	-0.14810605
137	0xbd9dee2f	-0.077114455
138	0xbdbe6c11	-0.09297956
139	0xbda4bb22	-0.08043505
140	0x3d9809a4	0.07423714
141	0x3e0b6724	0.13613564
142	0xbd50ee53	-0.051008534
143	0x3e071d14	0.13194686
144	0x3e64c42d	0.2234046
145	0xbe168444	-0.14698893
146	0xbd0c2f20	-0.03422463
147	0x3c67a0c6	0.0141374525
148	0xbe382c1f	-0.17985581
149	0xbc54125b	-0.012943829
150	0x3dbc5b78	0.09197134
151	0x3d9b6ffb	0.07589718
152	0xbe14330f	-0.14472602
153	0x3dbbbf53	0.091673516
154	0xbd101efa	-0.03518579
155	0xbdb160a0	-0.08661008
156	0xbea15eff	-0.3151779
157	0xb9963b0e	-0.0002865423
158	0xbcc8c2cb	-0.024506947
159	0xbd844509	-0.0645848
160	0xbdbcb838	-0.092148244
161	0xbb11142c	-0.0022137268
162	0x3d9dc08d	0.07702742
163	0xbd9e99fd	-0.07744215
164	0x3ccb003c	0.024780385
165	0xbdec9476	-0.11551754
166	0xbccb322d	-0.0248042
167	0x3c666b0f	0.014063611
168	0x3dbca58c	0.09211263
169	0xbd2476c9	-0.040152345
170	0xbcaec008	-0.021331802
171	0xbdc97f6a	-0.098387554
172	0x3d0014e5	0.031269927
173	0x3df05c84	0.11736396
174	0x3d9f94b0	0.07792032
175	0x3c035b0f	0.0080173155
176	0x3d32e200	0.04367256
177	0xbd7574b5	-0.059925754
178	0x3df57412	0.11985029
179	0xbe107c93	-0.14110021
180	0xbe1056a9	-0.14095558
181	0xbd890cc9	-0.06691892
182	0x3d6a68b0	0.057228744
183	0xbd337930	-0.043816745
184	0xbe6d8672	-0.23195818
185	0x3e22450a	0.15846649
186	0x3d5e1167	0.054215815
187	0xbc15d549	-0.009145089
188	0xbdd92cf5	-0.10604278
189	0x3d7da4b5	0.061924655
190	0xbe8a9e1d	-0.27073756
191	0x3c48d4cc	0.012257766
192	0xbdc331d6	-0.0953099
193	0x3dcc4425	0.09973935
194	0xbdb66c0d	-0.08907328
195	0xbd20fdc8	-0.039304525
196	0x3d596aee	0.05308049
197	0xbc38653d	-0.011254606
198	0xbcfbd479	-0.030740963
199	0x3d0bd6ae	0.03414028
200	0xbe08ae73	-0.13347797
201	0xbd2e5f1f	-0.042571183
202	0xbdcef91b	-0.10106107
203	0xbd852ad7	-0.06502312
204	0xbbfa862b	-0.0076453886
205	0x3d868b5f	0.06569552
206	0xbc0294c7	-0.007970042
207	0xbcb0a9c6	-0.02156533
208	0x3da7b948	0.081896365
209	0xbd93b08e	-0.072114095
210	0xbe0f0e47	-0.1397029
211	0xbdff69e1	-0.12471367
212	0xbd8c8ad1	-0.06862415
213	0x3dc9bcfb	0.09850498
214	0x3df0bd99	0.11754913
215	0x3debe08e	0.1151744
216	0xbe000784	-0.12502867
217	0x3e141243	0.14460091
218	0xbd2672ab	-0.0406367
219	0x3c606c4b	0.013697694
220	0xbe4830c2	-0.1954985
221	0x3de2133e	0.110388264
222	0x3de32c61	0.11092449
223	0xbce3a2da	-0.027787615
224	0xbd8889ab	-0.06666883
225	0xbddd90cf	-0.10818636
226	0x3c782427	0.015145338
227	0xbd80f1d5	-0.06296126
228	0xbd8a474f	-0.06751882
229	0xbe2a6091	-0.166384
230	0x3d98d4dd	0.074624754
231	0xbd118883	-0.03553058
232	0xbc17d9fa	-0.009268278
233	0xbe376ff4	-0.179138
234	0xbdc6447e	-0.096810326
235	0xbe243865	-0.16037138
236	0x3c6171f6	0.013760081
237	0x3e1bd95c	0.15219635
238	0xbd4dbfe2	-0.05023182
239	0xbe21725e	-0.15766284
240	0xbd4f7244	-0.05064608
241	0x3daf9a8b	0.085743986
242	0xbc96b79f	-0.018398104
243	0xbe53d560	-0.20686865
244	0xbe4fba55	-0.20285924
245	0x3ccdfafd	0.025144095
246	0x3dba4e17	0.09096926
247	0x3db9b9f3	0.0906867
248	0xbe4622d1	-0.19349219
249	0x3dc20e5f	0.09475397
250	0x3bcb760d	0.006209141
251	0xbd34bc0c	-0.044124648
252	0xbbba9dd1	-0.0056950827
253	0xbd888719	-0.06666393
254	0xbe25287f	-0.1612873
255	0x3e0302d6	0.1279405

model.3.bias f4 [128]
0	0x3d4ba7f7	0.04972073
1	0x3d85e8fb	0.06538578
2	0x3ba5215e	0.005039378
3	0x3d939c5f	0.0720756
4	0x3dda4e72	0.106594935
5	0x3d47f507	0.04881766
6	0x3dcc45ec	0.09974274
7	0x3dfb1c7c	0.12261292
8	0x3e017fce	0.1264641
9	0xbda6b189	-0.08139331
10	0x3df2de0a	0.11858757
11	0xbd636dff	-0.055524822
12	0xbe04d013	-0.12969999
13	0xbc6483df	-0.013947456
14	0xbdc3769f	-0.095441096
15	0xbd1da02a	-0.038482822
16	0xbccf775a	-0.025325466
17	0x3e16657b	0.14687149
18	0xbd1801cd	-0.037111092
19	0xbdf625e1	-0.120189436
20	0xbdccb068	-0.09994584
21	0xbcd8c9ce	-0.026463415
22	0xbe00cc51	-0.1257794
23	0x3d551c5f	0.05202901
24	0xbd444476	-0.047916852
25	0x3d45b611	0.048269335
26	0x3d81179b	0.063033305
27	0x3decd014	0.11563125
28	0xbbc5a7d8	-0.0060319714
29	0x3da863b5	0.082221426
30	0xbd8cc9a2	-0.06874396
31	0x3dd694d8	0.104776084
32	0xb90c79ea	-0.00013396857
33	0x3d3c40d0	0.045960248
34	0x3d250bab	0.04029433
35	0x3d76aeb3	0.0602252
36	0x3db1f67e	0.08689593
37	0xbb0c3fcb	-0.0021400328
38	0xbdda7051	-0.10665954
39	0xbce7fa3f	-0.028317569
40	0x3d15dfbf	0.036590334
41	0x3c21756a	0.009854654
42	0x3d81791d	0.06321929
43	0xbb611289	-0.0034343323
44	0xbd095b65	-0.033534426
45	0x3d8424d1	0.06452335
46	0x3d3ebef1	0.046568815
47	0xbd4d2209	-0.050081287
48	0x3e0c645e	0.13710162
49	0xbdafb474	-0.085793406
50	0x3e2922b2	0.16517141
51	0x3e16697b	0.14688675
52	0x3da34e80	0.07973957
53	0x3da57a40	0.08079958
54	0x3e1dbdc1	0.15404417
55	0x3e0ad08b	0.13556115
56	0x3e0d9ac2	0.13828567
57	0x3cd4f551	0.025995882
58	0xbd73aea1	-0.05949271
59	0x3dde3d10	0.108514905
60	0x3d8257c4	0.06364396
61	0xbdce530c	-0.10074434
62	0x3d5d0ea2	0.053969033
63	0xbd2eb7a6	-0.04265561
64	0x3d87f96c	0.0663937
65	0x3db7a157	0.0896632
66	0x3dddec39	0.108360715
67	0x3e00f2f2	0.12592676
68	0xbc49fa11	-0.012327687
69	0x3d10d51b	0.035359483
70	0xbd8e1c23	-0.069389604
71	0xbccd5951	-0.025067003
72	0x3c30ffa8	0.010803141
73	0x3c53c5fb	0.01292562
74	0xbd02831b	-0.031863313
75	0x3d40f74d	0.047110844
76	0x3d95dde5	0.07317714
77	0xbd61cf9f	-0.055129644
78	0x3cc02738	0.023456201
79	0x3d4ad1fd	0.049516667
80	0x3d69a2bf	0.057039972
81	0xbc91cb77	-0.017797215
82	0x3d5c2b58	0.053752273
83	0x3ddfd10f	0.10928547
84	0xbdc6998c	-0.096972555
85	0xbda69c20	-0.08135247
86	0xbccbed43	-0.024893409
87	0xbcc15c1f	-0.023603497
88	0xbd41ff12	-0.047362395
89	0x3d848bf3	0.06472006
90	0xbda3762b	-0.07981523
91	0xbdb26e78	-0.087124765
92	0xbd0326f3	-0.032019567
93	0x3c42dee3	0.011893961
94	0xbddfca3a	-0.109272435
95	0x3d04eabd	0.032450426
96	0x3d37207f	0.044708725
97	0x3d99844c	0.07495937
98	0x3da2be3a	0.07946439
99	0xbd72d852	-0.05928833
100	0xbda09d26	-0.07842474
101	0x3ce71b06	0.028211128
102	0x3de5b2b7	0.11215728
103	0x3dec2f04	0.11532405
104	0xbd99cfd9	-0.07510347
105	0xbd3daa94	-0.046305254
106	0xbd2eff30	-0.042723835
107	0x3d95df4d	0.07317982
108	0xbde1b935	-0.110216536
109	0xbdc43bc4	-0.09581712
110	0x3ceec459	0.02914636
111	0xbcae4fa0	-0.021278203
112	0x3d98457d	0.07435129
113	0xbc6af7ac	-0.014341276
114	0xbccdd637	-0.02512656
115	0xbd0fbe5c	-0.03509365
116	0xbc21fdeb	-0.009887199
117	0x3d1cf5c6	0.038320325
118	0xbcd22b73	-0.025655484
119	0xbd793b7f	-0.060847756
120	0x3c35bbbd	0.011092124
121	0xbdb691eb	-0.089145504
122	0x3ba520b3	0.0050392984
123	0xbd39eb43	-0.04539038
124	0x3d59e287	0.05319455
125	0x3de65c2b	0.112480484
126	0x3dc5b535	0.09653703
127	0xbcbc6797	-0.022998614

model.6.weight f4 [128, 128]
0	0x3d96cafd	0.07362936
1	0xbcf5d74f	-0.030009894
2	0x3c3debf7	0.011591903
3	0xbc6466db	-0.013940538
4	0xbd73fdf2	-0.059568353
5	0xbd411a3c	-0.04714416
6	0x3d5665c5	0.05234315
7	0xbda9df5f	-0.08294558
8	0xbb2b65e4	-0.002615326
9	0x3da8a60b	0.08234795
10	0xbd7f2fc6	-0.06230142
11	0x3d91c123	0.07116916
12	0x3e0030f3	0.12518673
13	0xbaee76da	-0.001819338
14	0x3c8702b9	0.01648079
15	0x3aa67c40	0.0012701824
16	0xbdb3664b	-0.08759745
17	0x3e089b8f	0.13340591
18	0x3d9489e5	0.07252864
19	0x3d17804b	0.036987584
20	0x3da00e87	0.07815271
21	0xbce6364f	-0.028102068
22	0x3c3c28db	0.01148435
23	0xbe8b2d5d	-0.27183047
24	0x3dd4eab0	0.103963256
25	0xbd8b5c57	-0.06804722
26	0xbd98578d	-0.07438574
27	0x3d133ef7	0.03594872
28	0x3c3d2249	0.011543819
29	0xbd95fdca	-0.07323797
30	0xbc7a549b	-0.015278961
31	0x3ddb6a08	0.10713583
32	0xbd8cdb67	-0.06877785
33	0xbe315e24	-0.17321068
34	0x3e06c8d4	0.13162547
35	0xbdaee6b3	-0.08540096
36	0xbdbc5fc7	-0.091979556
37	0x3d089cdd	0.03335272
38	0xbde2eadd	-0.11079953
39	0x3d7868fb	0.060646992
40	0x3d8862e4	0.06659487
41	0x3dd8e9e1	0.10591484
42	0xbe864830	-0.2622695
43	0x3af3db49	0.0018604781
44	0x3e1db109	0.15399565
45	0xbdc6a28d	-0.09698973
46	0xbdc52af6	-0.09627335
47	0xbd398e3b	-0.045301657
48	0xbd54d10e	-0.051957183
49	0x3aedfb7e	0.0018156616
50	0x3e1a5332	0.15070799
51	0xbdb763dc	-0.089545935
52	0x3d1fdc9a	0.03902874
53	0x3c2a2e25	0.010386978
54	0x3da3f50f	0.080057256
55	0xbd2d42e5	-0.042300124
56	0x3cfd281f	0.03090292
57	0x3d95e7eb	0.073196255
58	0xbe4bc078	-0.1989764
59	0xbd8cb0c7	-0.06869655
60	0xbd3f3382	-0.04667998
61	0x3c2c5bc1	0.010519923
62	0x3da34939	0.079729505
63	0xbd925cf2	-0.07146634
64	0x3da74f85	0.08169464
65	0xbd4a3043	-0.049362432
66	0x3dc59564	0.096476346
67	0xbd94203f	-0.07232713
68	0x3e0dc91c	0.13846248
69	0xbc123ba7	-0.008925355
70	0xbcaf2ba4	-0.021383114
71	0x3d972bb4	0.073813826
72	0xbdcb1467	-0.09916001
73	0xbd313e01	-0.043272022
74	0xbd984c48	-0.074364245
75	0xbec1cf56	-0.37853497
76	0xbb1ef247	-0.0024253295
77	0xbd044f98	-0.03230247
78	0x3cbc06d5	0.022952477
79	0x3c71b4bc	0.014752563
80	0xbda9de15	-0.08294312
81	0x3db78163	0.089602254
82	0x3e885bfd	0.2663268
83	0xbbbc3d50	-0.0057446137
84	0x3d273941	0.040826086
85	0x3da9eca7	0.08297091
86	0x3c55e215	0.01305439
87	0x3db34fa9	0.08755428
88	0x3d555e6b	0.052091997
89	0xbc304dfb	-0.0107607795
90	0x3da944ce	0.082650766
91	0x3cd9fa5e	0.026608642
92	0xbcd9a64d	-0.026568556
93	0x3dc016ab	0.093793236
94	0xbbfed3ae	-0.007776699
95	0x3bb2c28b	0.0054553202
96	0x3dcf6995	0.1012756
97	0xbe0b80e7	-0.13623391
98	0x3e27927f	0.16364478
99	0xbd8ead66	-0.06966667
100	0x3db5c04e	0.0887457
101	0x3c11cd7b	0.008899088
102	0xbdfeb6bd	-0.12437198
103	0x3b240c10	0.0025031604
104	0xbd101705	-0.035178203
105	0x3e0e0ab8	0.13871276
106	0x3d5c5797	0.05379447
107	0x3cb66ea8	0.022269562
108	0x3de5f393	0.11228099
109	0x3daf9026	0.08572416
110	0x3e22f3a1	0.1591325
111	0x3d6e1541	0.058125738
112	0xbdcab4cd	-0.09897766
113	0x3cfbe25e	0.030747589
114	0xbcc0fac7	-0.02355708
115	0x3bdb1d2f	0.0066868286
116	0x3d59054b	0.052983563
117	0xbe83ecc1	-0.25766566
118	0x3d1b6dfb	0.037946682
119	0x3db92de3	0.09041955
120	0x3d457ffb	0.048217755
121	0x3dbb7e14	0.09154907
122	0x3d3eee34	0.046613887
123	0x3e0cbad6	0.13743147
124	0x3da72c80	0.081627846
125	0xbdfdc341	-0.12390757
126	0xbdc14eb5	-0.0943884
127	0x3db15ee2	0.086606756
128	0x3d8df261	0.06930996
129	0xbd0d52f8	-0.034502953
130	0xbcf648b3	-0.030063963
131	0xbcf85069	-0.03031178
132	0xbd0c2e27	-0.0342237
133	0x3cea68a3	0.028614348
134	0xbd420fcb	-0.047378343
135	0x3e1d9a9c	0.1539101
136	0xbd14d371	-0.03633446
137	0x3b53064d	0.00321998
138	0xbc78688e	-0.0151616465
139	0x3cb8afcb	0.022544762
140	0xbdf37020	-0.118866205
141	0x3d81e378	0.06342214
142	0xbd0b04d2	-0.033940144
143	0x3e1e7255	0.15473302
144	0x3e59acb7	0.21257292
145	0xbeba6a19	-0.3640907
146	0xbc20c5a6	-0.009812748
147	0x3daf5237	0.08560603
148	0xbcf580eb	-0.0299687
149	0x3c708081	0.014679075
150	0x3e1701ae	0.14746734
151	0x3e193d83	0.14964871
152	0xbd0236ed	-0.031790663
153	0xbcddfd05	-0.027098188
154	0xbd7b0a7c	-0.061289296
155	0x3d076b85	0.033061523
156	0x3d07e9f5	0.033182103
157	0x3d434f24	0.047682896
158	0x3d719243	0.058977377
159	0xbc4951b9	-0.012287551
160	0x3dc8dea3	0.098080896
161	0x3e169d1c	0.1470837
162	0xbd3b65aa	-0.04575125
163	0x3e35e3f9	0.17762746
164	0xbdf2502e	-0.11831699
165	0x3d5d3dd9	0.05401406
166	0x3e594c7c	0.21220583
167	0xbbd85a17	-0.0066025364
168	0x3d1ea3ac	0.03873031
169	0x3d770187	0.06030419
170	0x3defb240	0.1170392
171	0x3d560a9f	0.052256223
172	0x3da26aad	0.07930503
173	0xbd436173	-0.047700357
174	0x3d89e22c	0.06732592
175	0x3e150349	0.14552034
176	0xbdc753a3	-0.09732749
177	0xbc0fb133	-0.008770275
178	0x3d87741d	0.06613944
179	0xbcd48fd8	-0.025947496
180	0x3e0fcba8	0.14042532
181	0xbdbd8589	-0.092539854
182	0xbe05d0cd	-0.13067932
183	0xbdf86b21	-0.12129808
184	0xbdee792c	-0.116442055
185	0xbd9aa633	-0.07551231
186	0x3e12182c	0.14267033
187	0xbc477fca	-0.012176463
188	0xbdceaecd	-0.10091934
189	0x3da5061d	0.08057807
190	0x3b9d81b4	0.0048067216
191	0x3eae220d	0.34010354
192	0xbdf0ef1b	-0.11764356
193	0x3d58bdc0	0.052915335
194	0x3dc8764a	0.09788187
195	0x3d5de718	0.054175466
196	0xbc9d1e0e	-0.01917937
197	0x3d4465de	0.04794871
198	0x3e0820c4	0.13293749
199	0xbd4c11df	-0.04982173
200	0xbe33a265	-0.17542417
201	0xbdf694cd	-0.120401
202	0xbd1c0e2b	-0.03809945
203	0xbdb7794e	-0.08958684
204	0x3dd5daf0	0.1044215
205	0xbc17070e	-0.009217991
206	0x3d29769b	0.041372877
207	0xbc5bde00	-0.013419628
208	0x3b2e7b09	0.0026623628
209	0x3d0e3eae	0.034727745
210	0x3d0c4865	0.03424873
211	0x3d105e8a	0.03524641
212	0x3e89d526	0.26920432
213	0x3c1f1f6d	0.009712082
214	0x3d2c545c	0.04207264
215	0x3dc055b5	0.09391347
216	0x3d80258c	0.062571615
217	0x3e09a97f	0.13443564
218	0xbd812e61	-0.06307674
219	0x3d8912ec	0.06693062
220	0xbaa9b937	-0.0012948875
221	0xbcabea94	-0.020985879
222	0x3dad7591	0.0846969
223	0xbd095eed	-0.033537794
224	0x3d1bec74	0.038067296
225	0x3daa8a5a	0.0832717
226	0xbde3b219	-0.11117954
227	0x3e025844	0.12728983
228	0xbc0d6d2c	-0.008631986
229	0x3d1d9803	0.038475048
230	0x3d233cf5	0.039853055
231	0x3d2e8c40	0.04261422
232	0xbce4bfec	-0.027923547
233	0x3c256b6b	0.010096411
234	0x3c3771f7	0.011196605
235	0x3caf5387	0.021402134
236	0x3d0ffde6	0.035154246
237	0xbdb8147c	-0.08988282
238	0xbe702a58	-0.23453653
239	0x3ded53ce	0.1158825
240	0x3ce20313	0.027589357
241	0x3c9e9945	0.019360194
242	0x3dfa12b0	0.122105956
243	0x3d7550c2	0.05989147
244	0x3da19a81	0.078907974
245	0x3e0e782b	0.13913028
246	0xbd1b1fc7	-0.037872102
247	0xbd817bf7	-0.063224725
248	0x3dcdb32f	0.10043942
249	0x3d9bcf48	0.07607895
250	0x3d69f43d	0.05711769
251	0xbca9f5fc	-0.020747177
252	0x3ceaa0f9	0.02864121
253	0xbd2a1b74	-0.041530088
254	0xbe446842	-0.19180396
255	0x3d3ccfc3	0.046096575

model.6.bias f4 [128]
0	0xbd03db18	-0.032191366
1	0xbc66ebd5	-0.014094313
2	0x3bfc9905	0.007708671
3	0x3bc979e9	0.006148566
4	0x3d822e9b	0.063565455
5	0x3dc52b0a	0.0962735
6	0xbd775e39	-0.060392592
7	0xbd0d076b	-0.034430902
8	0xbd46a704	-0.048499122
9	0xbbb36c78	-0.005475577
10	0x3c168460	0.009186834
11	0x3c20f44a	0.009823868
12	0x3c315b53	0.010824996
13	0xbad9d658	-0.0016619666
14	0x3c692464	0.014229868
15	0x3ce8daca	0.02842464
16	0x3d2a4eb1	0.041578952
17	0xbb919c3b	-0.004443673
18	0xbce2d4b2	-0.027689312
19	0x3c660e1c	0.01404145
20	0xbbaf7df4	-0.005355591
21	0x3de520f5	0.11187927
22	0x3d1e4850	0.03864318
23	0xbd2eb616	-0.04265412
24	0x3c56fa19	0.013121151
25	0xbd5c2a5f	-0.053751346
26	0xbc63fbae	-0.013914986
27	0x3d4edfbc	0.05050634
28	0xbcc16352	-0.02360693
29	0x3db03857	0.08604496
30	0xbcdb3fe4	-0.026763864
31	0xbca9c76e	-0.020724978
32	0xbd3e2f61	-0.046431903
33	0xbe0a3c2a	-0.13499513
34	0x3debcfe3	0.115142606
35	0x3d85148b	0.06498059
36	0x3d6ae7ac	0.057349846
37	0x3d814445	0.063118495
38	0x3c6c90c3	0.014438811
39	0xbce7c8c5	-0.028293977
40	0x3d025d1b	0.031827074
41	0xbd416746	-0.04721763
42	0x3da33fcc	0.07971153
43	0xb98da0e3	-0.00027013486
44	0xbd6acac5	-0.057322282
45	0x3e04e12e	0.12976524
46	0x3d7a8792	0.061164446
47	0xbd08c665	-0.03339233
48	0xbd4a6d38	-0.049420565
49	0x3cb67fda	0.022277761
50	0x3d9c0996	0.07619016
51	0xbd226ad5	-0.039652664
52	0xbbe5b77f	-0.0070104
53	0x3d9585bf	0.07300901
54	0xbc862488	-0.016374841
55	0xbd2dc2e0	-0.042422175
56	0xbca6cb98	-0.020360753
57	0x3d6e44ef	0.05817121
58	0x3d4cdf75	0.050017793
59	0xbd1efa1f	-0.038812753
60	0xbd0f6d88	-0.035016567
61	0xbd8eac6e	-0.06966482
62	0x3d1cab96	0.038249575
63	0xbcc9a1cb	-0.024613282
64	0xbce47df9	-0.0278921
65	0x3db1ebc2	0.08687545
66	0x3de2128c	0.11038694
67	0x3dbb88b0	0.091569304
68	0x3d90d0c5	0.0707107
69	0x3d281481	0.04103518
70	0x3d8dc602	0.069225326
71	0x3dc82cfd	0.09774206
72	0x3da03d74	0.07824221
73	0x3c5dcf39	0.013538175
74	0xbcdf081f	-0.027225552
75	0x3d7fe985	0.06247856
76	0x3d9faa04	0.077961
77	0x3d7defee	0.061996393
78	0x3ccd5219	0.025063561
79	0xbd5cacbd	-0.053875674
80	0x3d8350af	0.064118735
81	0x3cad8781	0.021182777
82	0x3dab2283	0.08356192
83	0x3d113ad4	0.035456493
84	0x3e02dd58	0.12779748
85	0x3d989fc3	0.07452347
86	0xbd1b4e4e	-0.037916474
87	0x3cbac274	0.0227978
88	0x3cf64531	0.03006229
89	0x3d1429e8	0.036172777
90	0x3c446e8a	0.011989245
91	0xbd8651d0	-0.06558573
92	0x3d21e7aa	0.039527573
93	0x3d346183	0.044038307
94	0x3db33182	0.08749677
95	0x3d016351	0.031588856
96	0x3d7ad6d4	0.061240032
97	0x3c773a7c	0.015089627
98	0x3dcb3b1f	0.09923386
99	0x3d60c817	0.05487832
100	0x3d8caef2	0.06869306
101	0xbd3df437	-0.04637548
102	0x3dc78e93	0.09743991
103	0x3ca3ce01	0.019995691
104	0xbd0e8a31	-0.03479976
105	0x3de748fc	0.112932175
106	0x3cc93316	0.024560492
107	0xbca0d4e9	-0.019632773
108	0xbcd24707	-0.025668634
109	0xbe6cbbe5	-0.23118551
110	0x3d901e62	0.07037045
111	0x3ddfaf61	0.10922123
112	0x3c36b085	0.011150484
113	0x3bdefaff	0.0068048234
114	0x3de6c885	0.11268715
115	0xbcac01e8	-0.020997003
116	0xbce1cf86	-0.027564775
117	0xbd798e16	-0.06092652
118	0x3c316bd2	0.010828929
119	0x3d5b4f55	0.053542454
120	0xbbff1a8a	-0.007785146
121	0xbd427196	-0.047471605
122	0xbd50234b	-0.050814908
123	0x3da8020a	0.08203514
124	0xbd5179e4	-0.051141635
125	0x3c00276c	0.007821899
126	0x3db27ae8	0.08714849
127	0xbd16495c	-0.036691055

model.9.weight f4 [1, 128]
0	0xbe5ae441	-0.21376134
1	0x3e33fe1f	0.17577408
2	0x3e2dc776	0.1697062
3	0xbf0134e3	-0.50471324
4	0x3e30f058	0.17279184
5	0xbdff02af	-0.12451684
6	0x3e81cfe0	0.2535391
7	0x3e6b78ac	0.22995251
8	0x3e7274f7	0.23677431
9	0xbf1890b6	-0.5959581
10	0x3e4f96a7	0.20272313
11	0xbeeaa75e	-0.45830816
12	0xbe45a313	-0.19300489
13	0x3e98f9a2	0.29877955
14	0x3e7a76b8	0.2445935
15	0x3e47cb08	0.19511044
16	0x3e4031cb	0.18768995
17	0xbe424734	-0.18972474
18	0xbefc7c64	-0.49313653
19	0xbf0ac550	-0.54207325
20	0x3e53867d	0.20656772
21	0xbe1a7cbe	-0.15086648
22	0xbe6997fc	-0.22811884
23	0x3e494d28	0.19658339
24	0xbebc5598	-0.36784053
25	0x3d948fd5	0.07253996
26	0x3e08a464	0.1334396
27	0xbe8c3836	-0.27386636
28	0x3de04090	0.10949814
29	0x3e4af358	0.19819391
30	0x3e44c20b	0.19214647
31	0x3e12619f	0.14295052
32	0xbe4ad683	-0.19808392
33	0xbdb4a753	-0.08820977
34	0xbe44ce83	-0.19219403
35	0xbe0e43f7	-0.13893114
36	0x3e627a8e	0.22117063
37	0xbe41f252	-0.18940094
38	0x3e35e735	0.1776398
39	0x3eadee8c	0.3397106
40	0xbebe1988	-0.37128854
41	0x3ea9ec9e	0.33188337
42	0xbf2495a1	-0.64290816
43	0x3dcbeb75	0.09957019
44	0xbf4c3279	-0.79764515
45	0xbe6130f1	-0.21991326
46	0xbe2fb330	-0.17158198
47	0xbe08daf8	-0.1336478
48	0x3e50d4ba	0.20393649
49	0x3e631e46	0.22179517
50	0xbea61663	-0.32438955
51	0x3e146344	0.14490992
52	0x3e72b28c	0.23700923
53	0x3e427079	0.18988217
54	0x3e799fc5	0.24377353
55	0xbd9979cd	-0.07493935
56	0xbe80de23	-0.25169477
57	0xbf170734	-0.58995366
58	0x3e65b39f	0.22431801
59	0x3e89f3c4	0.2694379
60	0xbe58bc4b	-0.21165578
61	0xbe474d44	-0.19463068
62	0x3e05e8f1	0.13077141
63	0x3e473bf5	0.19456466
64	0x3ea3afd4	0.31970084
65	0xbe40f9da	-0.18845311
66	0xbf04ccaa	-0.5187479
67	0x3e13ebc5	0.14445408
68	0x3e2df81e	0.1698918
69	0x3e4a949b	0.19783251
70	0x3e39e5ab	0.18154018
71	0xbedb5d2e	-0.42844528
72	0xbf2e8b6b	-0.68181485
73	0xbe0f3c64	-0.13987881
74	0x3dfd94ff	0.123819344
75	0x3e4bcdb8	0.19902694
76	0xbe3924f1	-0.18080498
77	0xbe3cf38b	-0.1845228
78	0x3e0a1087	0.13482867
79	0xbd61082b	-0.05493943
80	0x3e79625b	0.24353926
81	0x3e51402a	0.20434633
82	0xbeb1fe6b	-0.34764418
83	0x3e253bfa	0.1613616
84	0xbe260a0a	-0.16214767
85	0xbf0d678f	-0.5523614
86	0x3dc46be7	0.09590893
87	0xbdc680b7	-0.09692519
88	0x3e31f154	0.17377216
89	0xbf0d47bd	-0.5518759
90	0xbf172199	-0.5903564
91	0xbb2bb6ba	-0.0026201443
92	0x3e6610b4	0.22467309
93	0x3e2891d1	0.16461875
94	0xbe1c892b	-0.152867
95	0xbe7851e0	-0.24249983
96	0xbe8ec25d	-0.27882662
97	0x3e89063b	0.26762566
98	0xbdb7ff6d	-0.089842655
99	0xbf22c92f	-0.6358823
100	0xbea9ef3c	-0.33190334
101	0x3df2108a	0.11819561
102	0xbf168c82	-0.5880815
103	0x3e0f9faa	0.14025751
104	0xbd9b59a2	-0.075854555
105	0xbf032cf8	-0.5124049
106	0x3e49cefe	0.19707868
107	0x3e26f9a8	0.16306174
108	0x3e5a6623	0.21328025
109	0xbd6ed49f	-0.05830824
110	0xbf10821a	-0.5644852
111	0xbe162261	-0.14661552
112	0x3e78b9a1	0.24289562
113	0x3e48cfe6	0.19610557
114	0xbf005d7b	-0.5014264
115	0xbe4ec1bf	-0.20191096
116	0xbf094263	-0.53616923
117	0x3e7242dc	0.23658317
118	0xbe881e79	-0.2658575
119	0xbf0b147d	-0.5432814
120	0x3e3edb8c	0.18638438
121	0x3e4278f8	0.18991458
122	0x3e4bfdd1	0.19921042
123	0xbec4ef6f	-0.38463923
124	0x3e45de6b	0.19323127
125	0xbf0b212f	-0.5434751
126	0xbe8f8169	-0.2802842
127	0xbf17760e	-0.5916451

exp_avg f4 [64, 23]
0	0xb98d545f	-0.00026956477
1	0xb9d46516	-0.00040511106
2	0xb92c92a7	-0.0001645783
3	0xbcc66c49	-0.024221556
4	0xbc80222b	-0.015641293
5	0x3c242df8	0.010020725
6	0x3d05840f	0.032596644
7	0xb62f978e	-2.6165249e-06
8	0x39310848	0.0001688312
9	0xb8abe3f4	-8.196375e-05
10	0x3a4b171e	0.000774728
11	0xbb0000bc	-0.0019531688
12	0xbbfe5809	-0.0077619595
13	0xbcc68e23	-0.024237698
14	0xbcc16b79	-0.023610817
15	0xbcdfdb51	-0.027326258
16	0xbc26f993	-0.010191339
17	0xbc779a4f	-0.015112474
18	0xbc906d3d	-0.017630214
19	0xbc8175b8	-0.015803203
20	0xb968ede8	-0.00022213871
21	0xb91efc75	-0.00015162102
22	0xb98c3817	-0.0002674467
23	0x3afcfe90	0.001930194
24	0x3976c8f9	0.00023535256
25	0xb7550995	-1.269802e-05
26	0xbbdb920a	-0.006700759
27	0xbb29cb36	-0.0025908477
28	0xbb71f696	-0.0036920658
29	0x39e7f886	0.00044244918
30	0xb940410d	-0.0001833478
31	0xb7eae43e	-2.8001257e-05
32	0x3706f261	8.043456e-06
33	0x37b865c0	2.198189e-05
34	0xb913c77f	-0.0001409333
35	0x3ae0e2ef	0.0017157475
36	0xbc1a5dd3	-0.0094217835
37	0xbc25d158	-0.010120712
38	0xbc1c0850	-0.009523466
39	0xbb6699d1	-0.0035186897
40	0xbb696eb5	-0.0035618965
41	0xbbdbb132	-0.006704473
42	0xbc18b273	-0.009319889
43	0xb891af4c	-6.9467904e-05
44	0xb896f18e	-7.1975504e-05
45	0xb836e3cb	-4.360433e-05
46	0xba08f828	-0.00052249664
47	0xba13c1f2	-0.0005636505
48	0xb8b4ade7	-8.615461e-05
49	0xb9116b16	-0.0001386817
50	0x3bb2b7f1	0.0054540564
51	0xbb92881f	-0.0044717933
52	0xbb514f35	-0.003193808
53	0x37cda187	2.4513121e-05
54	0x389ae849	7.386559e-05
55	0x36bf0dc5	5.6938466e-06
56	0xba84aac9	-0.0010121699
57	0x38f8c4d1	0.000118622214
58	0xba56e1d0	-0.0008197101
59	0x39e01260	0.000427383
60	0xbb6cd41c	-0.003613717
61	0xba0328d4	-0.0005003337
62	0x3a9f2e5a	0.0012144551
63	0xbb49573f	-0.0030722169
64	0x3a5fd6be	0.0008538774
65	0x3a20742e	0.0006120828
66	0xb7b1e0c2	-2.1204705e-05
67	0xb6f96042	-7.431984e-06
68	0xb794290a	-1.7662085e-05
69	0x3b50678d	0.0031800002
70	0x39c684e2	0.00037864508
71	0x39030fdc	0.00012499042
72	0xbb46e6a7	-0.0030349882
73	0xbafb974b	-0.0019194869
74	0x3bc98834	0.00615027
75	0x3c1decbf	0.009638964
76	0x3963d1e6	0.000217266
77	0x38e62d7f	0.00010975729
78	0xb7b46091	-2.150264e-05
79	0xb9d4a0d9	-0.00040555632
80	0x3a5e4ba2	0.0008479898
81	0xbb06a171	-0.0020543004
82	0x3a4c8fdd	0.000780342
83	0x3b13b680	0.0022539198
84	0x3a0eded5	0.00054500747
85	0xb9e48fe5	-0.0004359476
86	0x3b6fad22	0.00365717
87	0x3bce75b9	0.0063006547
88	0xbb8c5c3a	-0.004283455
89	0xb756a4cd	-1.2793765e-05
90	0x37a803cf	2.0028934e-05
91	0xb83702d6	-4.363324e-05
92	0x3b3f323c	0.002917423
93	0x3af0e0d3	0.001837755
94	0x398b192e	0.00026530906
95	0xbbc9f8f8	-0.0061637126
96	0x3bb87d52	0.0056301737
97	0x3bc50ed0	0.0060137287
98	0x3c2ddca2	0.010611685
99	0x39dff0ba	0.0004271323
100	0x390969f1	0.00013104804
101	0xb879d993	-5.9568858e-05
102	0xbaf7d3ea	-0.001890776
103	0xbaf5a3c0	-0.0018740818
104	0xbb82b61d	-0.0039889948
105	0x3c1493b6	0.00906842
106	0x3c29fb87	0.01037491
107	0x3c1c1762	0.009527059
108	0x3a8ff00a	0.0010981571
109	0x3bdbaa1e	0.006703629
110	0x3c222c3c	0.009898242
111	0x3bbeadf1	0.0058190753
112	0x388d4acd	6.737337e-05
113	0x38b27e21	8.511195e-05
114	0x357d3cb1	9.433816e-07
115	0x3b4d9935	0.0031371836
116	0xbb9b50cf	-0.0047398577
117	0x37d698a9	2.5581876e-05
118	0xbaad7073	-0.0013232365
119	0xb8338c81	-4.280778e-05
120	0xbb53a5dd	-0.0032294907
121	0x3b06d11c	0.0020571416
122	0x38f32b06	0.00011595157
123	0x37dd611a	2.639047e-05
124	0x36ece976	7.0605265e-06
125	0xba0af7a7	-0.00053011853
126	0x3a630216	0.00086596736
127	0xba8d9144	-0.0010800739
128	0x3ae5221b	0.0017481478
129	0x39a6e314	0.00031831174
130	0x3a84d1aa	0.0010133286
131	0x38eed410	0.00011388224
132	0x3aa61b45	0.0012672922
133	0x3b37e77b	0.0028061557
134	0x39c30292	0.00037195213
135	0x3705cdde	7.97535e-06
136	0x37c06b88	2.2938257e-05
137	0x36d902df	6.467438e-06
138	0xbc37791a	-0.011198306
139	0xbb092368	-0.0020925645
140	0xba093605	-0.0005234185
141	0xbc7a91c4	-0.015293542
142	0x3b0f23f7	0.0021841505
143	0xba02dbca	-0.00049918576
144	0x3c27126d	0.010197264
145	0x392c8a35	0.00016454684
146	0x3963cd76	0.00021724947
147	0xb8cb925e	-9.707057e-05
148	0xbb2c370f	-0.0026277935
149	0xba539554	-0.0008071263
150	0xbb00a819	-0.0019631444
151	0xbcb158d0	-0.021648794
152	0xbc9c2e1b	-0.019064954
153	0xbcca158e	-0.024668481
154	0xbc135479	-0.008992308
155	0xbcd6ebba	-0.02623545
156	0xbc990ee3	-0.018683856
157	0xbc4105f9	-0.011781209
158	0xb939f59d	-0.00017734473
159	0xb90bc032	-0.00013327671
160	0xb92052ed	-0.00015289681
161	0xbb0d5b9d	-0.0021569498
162	0xbaa619d5	-0.0012672493
163	0xb9c844f1	-0.00038198338
164	0x3a221eba	0.0006184388
165	0x3b54b361	0.003245555
166	0xbb800aba	-0.0039075287
167	0xbc464555	-0.012101491
168	0xb93edaf5	-0.0001820138
169	0xb8945809	-7.073588e-05
170	0x37a9544b	2.0185622e-05
171	0x39f624cd	0.00046948195
172	0x39fd48b5	0.0004831009
173	0x3b4c0dd8	0.0031136181
174	0xbc2123d4	-0.009835202
175	0xbc3da43f	-0.011574804
176	0xbc2b5c80	-0.010459065
177	0xbb04deb1	-0.0020274336
178	0xbc39739a	-0.0113190655
179	0xbc171bd1	-0.009222941
180	0xbbe3e3af	-0.0069546322
181	0xb81b5cb9	-3.7041234e-05
182	0xb8b7a5de	-8.757015e-05
183	0xb7197050	-9.14566e-06
184	0x3ab82924	0.0014050347
185	0xbb3ee3e6	-0.0029127537
186	0xb939f7ef	-0.00017735337
187	0xbb9b2162	-0.004734204
188	0xbc15a066	-0.00913248
189	0xb9ca23ee	-0.00038555212
190	0x3c460174	0.012085307
191	0xb97dc527	-0.00024201405
192	0xb7e910a8	-2.778352e-05
193	0xb7cfd86b	-2.47771e-05
194	0x39cf128c	0.00039495935
195	0xba844c52	-0.0010093546
196	0xbb0adeaf	-0.0021189859
197	0xbc0ea591	-0.008706466
198	0xbb6b122b	-0.0035868983
199	0xbc6f69f9	-0.014612668
200	0xbbb3d3e8	-0.0054879077
201	0xbbc52243	-0.006016047
202	0xbc14176b	-0.009038786
203	0xbc2c9a18	-0.010534786
204	0xb917b035	-0.00014466124
205	0xb8a9161c	-8.062666e-05
206	0xb867c3a0	-5.525688e-05
207	0xbb30163a	-0.0026868717
208	0xb9d213e8	-0.00040069153
209	0x39315c24	0.0001691436
210	0xba36bb1b	-0.000697063
211	0xbc1b9b44	-0.009497467
212	0x3bd25c8b	0.0064197234
213	0x3c9cd0c1	0.01914251
214	0xb939233c	-0.000176561
215	0xb943cdeb	-0.0001867336
216	0xb812eb6b	-3.5028363e-05
217	0xbaac6ff5	-0.0013155924
218	0xbb2dac7b	-0.0026500511
219	0xba3d2458	-0.00072151935
220	0x3b9c874a	0.00477687
221	0x3bb5211c	0.0055276286
222	0x3ba6188f	0.0050688456
223	0x3b00789a	0.0019603134
224	0x3b4dad4f	0.0031383818
225	0x3bf76d90	0.0075509027
226	0x3adbd294	0.0016771131
227	0x38526fa3	5.017187e-05
228	0x378dabcc	1.6888509e-05
229	0x37d7d23a	2.5727892e-05
230	0x3abd7ca3	0.00144567
231	0x3ba56dee	0.005048505
232	0xba3a734f	-0.0007112519
233	0xbd0e76c5	-0.034781236
234	0xbc5eb625	-0.013593231
235	0x3b02f1a6	0.001998046
236	0x3c560b79	0.013064259
237	0xb986ef96	-0.00025736977
238	0x38f3e4de	0.00011629773
239	0x379ecfcf	1.8931836e-05
240	0x3aaf42bc	0.0013371329
241	0x394a48eb	0.00019291385
242	0xbb509362	-0.0031826128
243	0xbd1fd2e1	-0.03901947
244	0xbd04fb45	-0.03246619
245	0xbd1f968d	-0.038961936
246	0xbc5b0a5a	-0.013369167
247	0xbcb5126c	-0.02210351
248	0xbd04f6e4	-0.032462016
249	0xbca8715f	-0.020561872
250	0xb975fb99	-0.00023458748
251	0xb939ddfe	-0.00017725673
252	0xb950ae3a	-0.0001990133
253	0xbb4b7b6e	-0.0031048912
254	0x3984550f	0.00025240376
255	0xb95b9653	-0.00020941468

exp_avg_sq f4 [64, 23]
0	0x3b04c0cf	0.0020256524
1	0x3b04f534	0.0020287754
2	0x378b8602	1.6632493e-05
3	0x3c57683a	0.013147408
4	0x3abd750a	0.0014454436
5	0x3ae234b9	0.0017258144
6	0x3c282f54	0.01026519
7	0x35bbe6a1	1.3999708e-06
8	0x35c71e74	1.4835518e-06
9	0x3481b464	2.4159374e-07
10	0x388be225	6.670159e-05
11	0x38891af3	6.537689e-05
12	0x3a684db5	0.0008861677
13	0x3d024ee3	0.031813513
14	0x3cfb7d62	0.030699436
15	0x3cf2fdf7	0.029662115
16	0x3b2a0402	0.002594233
17	0x3c84cec3	0.016211873
18	0x3c8b8fb6	0.0170363
19	0x3c87b4fb	0.01656579
20	0x358e1bf3	1.0587959e-06
21	0x3589f66f	1.0279017e-06
22	0x358ca6c0	1.0479343e-06
23	0x38e5f52c	0.00010965238
24	0x38dc4448	0.00010503136
25	0x352fda62	6.551037e-07
26	0x3a10c83e	0.00055230025
27	0x38ee6d2b	0.000113690585
28	0x39259832	0.00015792323
29	0x39c86aa5	0.0003822643
30	0x33e5f1a4	1.0707598e-07
31	0x33b7c36e	8.55715e-08
32	0x332c1e81	4.0074614e-08
33	0x37200dd3	9.539962e-06
34	0x376eb481	1.4227932e-05
35	0x37edb1e9	2.8335447e-05
36	0x3aa36b58	0.0012467904
37	0x3aaecdb0	0.0013336446
38	0x3a9f6112	0.0012159667
39	0x38d204e8	0.00010014494
40	0x3a21ef42	0.0006177315
41	0x3a41351d	0.000737028
42	0x3a705bd9	0.000916896
43	0x333a021a	4.330841e-08
44	0x333dc368	4.4182713e-08
45	0x333aecbb	4.3521805e-08
46	0x38bd5411	9.027881e-05
47	0x38b4f3ee	8.628504e-05
48	0x35278c9a	6.241695e-07
49	0x39f5d88e	0.00046891387
50	0x390f526d	0.00013668249
51	0x393c5237	0.00017959705
52	0x398bf1d8	0.00026692334
53	0x349cf6d3	2.9236853e-07
54	0x345b62bc	2.0431884e-07
55	0x339cf9f0	7.3097794e-08
56	0x38dff828	0.00010679691
57	0x38f6dcc5	0.000117713156
58	0x386a7d70	5.590677e-05
59	0x3a8ce512	0.0010749421
60	0x3a9b3ad0	0.0011843089
61	0x3a8d7d7b	0.0010794842
62	0x389a0484	7.344133e-05
63	0x3a41d012	0.00073933706
64	0x3a1e1716	0.0006030662
65	0x3a3fcf48	0.0007316959
66	0x332bbd44	3.9986176e-08
67	0x332f39f9	4.079809e-08
68	0x332b382e	3.9865135e-08
69	0x3933d4ec	0.0001715009
70	0x39351031	0.00017267537
71	0x35a790ca	1.2484609e-06
72	0x3a4acb3e	0.0007735974
73	0x39223e3b	0.00015472707
74	0x3941c1c0	0.00018478092
75	0x3a82be28	0.0009974884
76	0x34c8ce01	3.740279e-07
77	0x345a14d4	2.031041e-07
78	0x3381c4af	6.042807e-08
79	0x387bac6a	6.0003636e-05
80	0x38d7e3f1	0.00010294456
81	0x39254736	0.00015762154
82	0x3b1a0350	0.002350051
83	0x3b187117	0.0023260766
84	0x3b131ffb	0.0022449482
85	0x3930a85c	0.00016847387
86	0x3ad60c5a	0.0016330585
87	0x3a9f89a0	0.0012171753
88	0x3a90d292	0.0011049083
89	0x33b0c1fe	8.2309256e-08
90	0x33a9cd8f	7.907067e-08
91	0x33ad51f7	8.0708496e-08
92	0x395b0847	0.00020888551
93	0x395497e5	0.0002027448
94	0x35c911b8	1.4980824e-06
95	0x3a4e62f1	0.000787302
96	0x392acef2	0.00016289557
97	0x3981820a	0.00024701684
98	0x3aad9b6e	0.0013245174
99	0x34f6be9e	4.5959763e-07
100	0x34a348d8	3.0414117e-07
101	0x338d3d29	6.576949e-08
102	0x382e3a69	4.153923e-05
103	0x3843e159	4.6701494e-05
104	0x398c9549	0.00026814107
105	0x3b37b4bc	0.002803131
106	0x3b270db3	0.0025490343
107	0x3b2c98fa	0.0026336298
108	0x393f9c81	0.00018273482
109	0x3ac2f0dc	0.0014872807
110	0x3afbd515	0.0019213284
111	0x3ad1bf2f	0.0016002412
112	0x33d1d56e	9.7711435e-08
113	0x33ca72e6	9.427258e-08
114	0x33d13c0f	9.7432455e-08
115	0x38f6f72a	0.00011776232
116	0x3902e13c	0.00012481672
117	0x35143901	5.521725e-07
118	0x39a13e1f	0.00030754597
119	0x39c92291	0.00038363461
120	0x38ff5541	0.00012175227
121	0x3913e4cf	0.0001410425
122	0x3494a65d	2.7688193e-07
123	0x3459b603	2.0275915e-07
124	0x33b970cd	8.635252e-08
125	0x3996288b	0.00028640436
126	0x386f85fa	5.7106816e-05
127	0x389e6ab5	7.553903e-05
128	0x3a7cbc12	0.0009641062
129	0x3a71382c	0.00092017907
130	0x3a7784de	0.0009442101
131	0x37dc1181	2.6234195e-05
132	0x3a4b28bc	0.00077499053
133	0x39bb020a	0.0003566894
134	0x3a522cd3	0.00080175436
135	0x330ea821	3.3214864e-08
136	0x331253e4	3.4069572e-08
137	0x330af884	3.2356652e-08
138	0x39c90ca7	0.00038347134
139	0x39bbd05b	0.00035822656
140	0x36307a62	2.629728e-06
141	0x3b066bad	0.0020510957
142	0x3989d214	0.00026287197
143	0x3a08946b	0.0005210104
144	0x3ad5ac6e	0.0016301998
145	0x34b6ff2b	3.40858e-07
146	0x34894973	2.557168e-07
147	0x3358a714	5.0443376e-08
148	0x387cda61	6.0284863e-05
149	0x386d6693	5.6600733e-05
150	0x38ffba7a	0.000121940815
151	0x3ba21540	0.004946381
152	0x3b9aaaa1	0.0047200476
153	0x3b963f63	0.004585193
154	0x39e5575d	0.00043743374
155	0x3b5497a0	0.0032439008
156	0x3b04bc0a	0.0020253682
157	0x3b0d40e9	0.0021553582
158	0x342cf93b	1.6109418e-07
159	0x342dad69	1.6174967e-07
160	0x34314308	1.6508795e-07
161	0x395b222b	0.00020898196
162	0x3960a9e9	0.00021425601
163	0x35e47787	1.7022111e-06
164	0x3a9d2905	0.0011990374
165	0x390318b2	0.00012502333
166	0x39830325	0.0002498861
167	0x3aa14cf4	0.0012306259
168	0x34b5d162	3.3866223e-07
169	0x349cd852	2.9214658e-07
170	0x338baf18	6.504541e-08
171	0x390ad773	0.00013240967
172	0x385030ba	4.9636445e-05
173	0x393d6cb0	0.00018064934
174	0x3b5435bc	0.003238066
175	0x3b4dacab	0.0031383436
176	0x3b48a256	0.0030614338
177	0x3978a256	0.00023711598
178	0x3ae32f2f	0.0017332787
179	0x3b0a8cde	0.0021141092
180	0x3ad00508	0.001587064
181	0x33ee8b05	1.1108026e-07
182	0x33e513c5	1.06672395e-07
183	0x33ef65f1	1.1147848e-07
184	0x3a9c1010	0.0011906642
185	0x3a92d0c3	0.0011201132
186	0x370d099e	8.406494e-06
187	0x3c45dae4	0.012076113
188	0x39d59a21	0.0004074136
189	0x3955e4e3	0.0002039853
190	0x3af9cc7a	0.0019058131
191	0x3502f5c4	4.878641e-07
192	0x35259d5c	6.169628e-07
193	0x33fea025	1.1856927e-07
194	0x38475431	4.7523707e-05
195	0x385d2ab9	5.2730295e-05
196	0x39c2e189	0.000371706
197	0x3c7fd403	0.015614512
198	0x3c80b54c	0.01571145
199	0x3c755832	0.014974641
200	0x3ad1a403	0.0015994314
201	0x3c1f5f35	0.009727289
202	0x3ba003e6	0.004883277
203	0x3bebb555	0.0071932473
204	0x350f1d51	5.331431e-07
205	0x3511de6c	5.4340376e-07
206	0x351200ee	5.439059e-07
207	0x396278f5	0.000215981
208	0x39742e6d	0.00023286948
209	0x35aeb810	1.301758e-06
210	0x39d56a89	0.000407059
211	0x39927d0d	0.0002794046
212	0x39a4e762	0.0003145291
213	0x3aaff707	0.001342506
214	0x35208198	5.979323e-07
215	0x34b3b337	3.3471744e-07
216	0x3433a5f8	1.6731053e-07
217	0x3970432c	0.00022913207
218	0x3a0d53d3	0.0005391214
219	0x38416643	4.6110024e-05
220	0x3b221b4c	0.0024735508
221	0x3b28f5fc	0.0025781384
222	0x3b259450	0.0025265403
223	0x39386cd7	0.00017588153
224	0x3a81738f	0.0009876358
225	0x3ae2ee87	0.0017313518
226	0x3a31c693	0.0006781604
227	0x33cc8624	9.52389e-08
228	0x33c1eebc	9.0306884e-08
229	0x33c47797	9.1487145e-08
230	0x3a4c7761	0.0007799771
231	0x3a5357d6	0.00080621
232	0x36cc87c1	6.0954776e-06
233	0x3bb85893	0.0056257932
234	0x3a1b8f01	0.000593409
235	0x3aa48709	0.0012552451
236	0x3b4063ec	0.0029356433
237	0x3562ac39	8.444218e-07
238	0x355ed60c	8.3012924e-07
239	0x344c6ae1	1.9037863e-07
240	0x39322854	0.00016990426
241	0x3a2869fb	0.0006424484
242	0x39707777	0.00022932688
243	0x3c31920d	0.010838044
244	0x3c3e2af0	0.011606917
245	0x3c31b40a	0.010846147
246	0x3a75e91e	0.00093807455
247	0x3ba232bc	0.0049498957
248	0x3bdea0f0	0.0067940876
249	0x3bae5bed	0.005321017
250	0x34ccb09d	3.8126464e-07
251	0x34ca0519	3.762914e-07
252	0x34ccff87	3.8183882e-07
253	0x38db32bb	0.00010452183
254	0x38dc5a09	0.00010507188
255	0x3521b148	6.023515e-07

exp_avg f4 [64]
0	0xbcdfdb52	-0.02732626
1	0xbc1c0850	-0.009523466
2	0xba0328e4	-0.00050033466
3	0x3a0ededd	0.00054500793
4	0x3c1c1764	0.009527061
5	0x3a84d1ac	0.0010133288
6	0xbcca158f	-0.024668483
7	0xbc2b5c7f	-0.0104590645
8	0xbc6f69f8	-0.014612667
9	0x3ba6188f	0.0050688456
10	0xbd1f968c	-0.038961932
11	0xbc0ecb0f	-0.008715405
12	0xbacadd6a	-0.0015477363
13	0x3d64c077	0.05584761
14	0x3c371cbf	0.011176287
15	0x3c1952f2	0.009358155
16	0x3d17c463	0.037052523
17	0x3ce98b3a	0.028508771
18	0x38a9aed2	8.091111e-05
19	0xbd667fca	-0.056274213
20	0x3d661db4	0.05618067
21	0xbc363506	-0.01112104
22	0xbc71adad	-0.01475088
23	0xba532562	-0.00080545817
24	0xbcb3d0a5	-0.021950075
25	0x3c72ccb7	0.014819316
26	0x3a8799df	0.001034554
27	0x3bbbf653	0.0057361512
28	0xbd83b5f9	-0.06431193
29	0xbc3ff3e2	-0.011715861
30	0x3d0f4d09	0.034985576
31	0x3cc40bfd	0.023931498
32	0xbcb1e14a	-0.021713872
33	0xbcc8b27f	-0.024499176
34	0x3b442c10	0.002993349
35	0xbc7a339b	-0.015271093
36	0x3d9697ab	0.07353147
37	0x3ce440a5	0.027862856
38	0xbbc6e81c	-0.00607015
39	0xbc50cbae	-0.0127438735
40	0x3bb50cdf	0.005525216
41	0x3b7e1545	0.0038770002
42	0x3c9ee9ea	0.019398648
43	0x3c951da2	0.018202607
44	0x3bb86c6e	0.00562816
45	0x3c449718	0.011998914
46	0xbbc11441	-0.005892307
47	0x3c795fcd	0.015220595
48	0x3caf03f4	0.02136419
49	0xbb819ce8	-0.0039554723
50	0x3c658a44	0.014010016
51	0xbcbd0e32	-0.023078058
52	0xbb416202	-0.002950788
53	0xbd6062a8	-0.054781586
54	0x3bc95a99	0.0061448333
55	0x3c17d735	0.009267618
56	0xbc8e113c	-0.017342202
57	0xbad4d63e	-0.0016238166
58	0xbc9093c0	-0.017648578
59	0x3c3ef84e	0.01165588
60	0xbbaa4f15	-0.0051974156
61	0x3c15fe57	0.009154878
62	0xbd9829ba	-0.07429834
63	0x3cb21adb	0.021741321

exp_avg_sq f4 [64]
0	0x3cf2fdf5	0.029662112
1	0x3a9f6112	0.0012159667
2	0x3a8d7d78	0.0010794839
3	0x3b131ffc	0.0022449484
4	0x3b2c98f9	0.0026336296
5	0x3a7784dc	0.00094421
6	0x3b963f64	0.0045851935
7	0x3b48a256	0.0030614338
8	0x3c755832	0.014974641
9	0x3b259450	0.0025265403
10	0x3c31b40b	0.010846148
11	0x3a88f8c8	0.0010450119
12	0x3a886f3e	0.0010409129
13	0x3cf08df0	0.029364556
14	0x3bb68668	0.0055702217
15	0x3a2ac970	0.0006515002
16	0x3c921241	0.01783097
17	0x3c993f6e	0.018707003
18	0x35d8f0c8	1.6163331e-06
19	0x3d1e8b83	0.038707267
20	0x3cd24abb	0.0256704
21	0x3b476c56	0.0030429563
22	0x3b0263ba	0.0019895867
23	0x381ff14b	3.8133276e-05
24	0x3c892e6f	0.016745774
25	0x3be6b297	0.0070403325
26	0x3bacfe74	0.0052793566
27	0x3b5656fa	0.003270565
28	0x3d536df0	0.051618516
29	0x3a4eaf05	0.00078843563
30	0x3c199e33	0.009376097
31	0x3b10733a	0.0022041337
32	0x3c78c6ef	0.015184148
33	0x3ce86cd5	0.028372208
34	0x3bdcc56b	0.0067374012
35	0x3be20f65	0.006898808
36	0x3cb53304	0.022119053
37	0x3ccc1123	0.024910515
38	0x3c1b1a27	0.009466684
39	0x3bdd80a4	0.00675972
40	0x3b8cf178	0.0043012463
41	0x3c7f0801	0.015565873
42	0x3d24c836	0.04023
43	0x3c6570de	0.01400396
44	0x3b9800b3	0.004638755
45	0x3b42eaec	0.0029742075
46	0x3c38c3e9	0.011277177
47	0x3bf01cbb	0.0073276437
48	0x3c854b2d	0.016271198
49	0x3b06c510	0.0020564236
50	0x3bcf9840	0.0063352883
51	0x3cb7f3a3	0.022455042
52	0x3b922cf2	0.0044609243
53	0x3c7d38b1	0.015455411
54	0x3bfcf188	0.0077192225
55	0x3c5b834c	0.013398003
56	0x3db58915	0.08864037
57	0x3ba85819	0.005137455
58	0x3ae5425b	0.0017491089
59	0x3ccaaf82	0.024741892
60	0x3a28b611	0.00064358214
61	0x3a68e27e	0.00088838476
62	0x3d3f0643	0.04663683
63	0x3ce1ae1b	0.02754884
